notebooks/multimodal_bridges/lightning_logs/version_5/checkpoints/epoch=199-step=200.ckpt (torch, 155064 bytes, 141 tensors)

encoder.epic.embedding.embedding_continuous.weight f4 [16, 3]
-0.4040118 0.18155195 0.12259445 0.07857303 -0.18045568 0.55505025 -0.16579676 -0.6465725
0.037597615 -0.5848807 -0.035306882 0.11022784 -0.41527694 -0.52728456 -0.087115414 -0.17249066
-0.25297993 0.6041924 0.24503095 -0.07844863 -0.44563904 0.56048423 0.25418878 0.12710983
-0.27057257 -0.32277462 -0.5920381 0.3246749 0.45319808 0.016793067 -0.34445608 0.5207717
-0.0846736 0.15815075 0.031543653 -0.33283347 0.060828086 0.321965 0.39270282 0.66468745
-0.3471667 0.10423528 0.39482957 0.21339844 -0.43336838 -0.14245366 -0.49127677 -0.3075725
00000000: a2da cebe c1e8 393e cd12 fb3d e6ea a03d
00000010: 60c9 38be c617 0e3f a0c6 29be c685 25bf
00000020: f5ff 193d beba 15bf f39d 10bd 22bf e13d
00000030: 2e9f d4be 1ffc 06bf 9169 b2bd 64a1 30be
00000040: 9686 81be 5aac 1a3f 65e9 7a3e ada9 a0bd
00000050: cd2a e4be e57b 0f3f 0825 823e 1429 023e
00000060: 7d88 8abe b742 a5be cf8f 17bf ca3b a63e
00000070: 9409 e83e 9d91 893c 8c5c b0be 4b51 053f
00000080: 5a69 adbd 45f2 213e eb33 013d 2669 aabe
00000090: df26 793d 99d8 a43e 5810 c93e f528 2a3f
000000a0: d5bf b1be 4e79 d53d 1a27 ca3e 1f85 5a3e
000000b0: 76e2 ddbe 5fdf 11be a188 fbbe 257a 9dbe

encoder.epic.embedding.embedding_continuous.bias f4 [16]
0.13608275 0.115146294 -0.37305608 -0.21401475 0.4608981 0.15978488 -0.41602615 0.30188078
0.41523376 -0.5180115 -0.46934065 -0.3469002 -0.10670641 -0.36134645 -0.017509285 -0.4202976
00000000: 4759 0b3e d2d1 eb3d 3501 bfbe af26 5bbe
00000010: d6fa eb3e a69e 233e 6101 d5be 1e90 9a3e
00000020: 8599 d43e 679c 04bf 6b4d f0be e79c b1be
00000030: e488 dabd 6702 b9be a26f 8fbc 3f31 d7be

encoder.epic.embedding.embedding_discrete.weight f4 [8, 16]
0.22388458 1.0883027 -0.17631596 0.101261415 -0.093734 -1.6267095 2.2458012 1.259776
-0.85158116 -1.4205103 -1.2864792 -0.020443968 0.29919544 0.20132682 -0.65892375 0.40457132
-0.44481874 0.2040352 -1.3069712 -0.69739383 1.2157816 -0.23665147 -1.9275364 -0.8889501
-0.63851166 0.3287545 -0.8092332 -0.79882234 -0.70115495 1.0824122 -0.32386985 0.43284115
1.0476129 1.4916152 0.38483998 -1.9156418 0.8136981 -0.5494205 0.24651949 -0.3943191
0.07335741 0.13999543 -0.66146636 -0.24952464 2.7562742 -0.2481208 0.3689346 -0.65274966
-1.09818 -0.64113975 1.3605045 -0.032156162 2.1248286 -0.16268323 1.1690766 -1.1537833
1.8633626 -1.5613725 -0.15112713 -0.60504043 0.3338184 -1.9205444 0.57024056 -0.12575266
-0.69712955 -2.6949453 -0.37270105 2.3662438 0.32096896 0.062228814 2.5254989 -1.549584
-1.4408108 1.0578699 0.01877428 0.9767734 -1.9604263 2.2159154 -0.6452832 0.3745747
-0.4739387 1.2861745 1.0698721 -0.16235092 0.90313214 -0.7505786 -0.46054885 1.289356
1.4867553 0.07330438 -1.332566 0.6898932 0.5936918 -0.3041385 0.4050639 -0.029997969
1.2584764 0.36291406 -0.80789083 0.8028139 0.8836853 0.20634678 -1.0440792 0.65215516
1.2117575 -0.7157784 -0.78061575 -0.08097449 -0.3110819 -0.32183152 -0.3587437 -1.0539416
-1.4166877 -1.5039274 -1.4431713 -0.5462237 1.4178749 -0.13218707 0.23262583 -0.4712192
0.6670394 -2.335509 -0.04051273 2.1918688 0.96097815 1.1522768 -0.62946945 -0.5387534
00000000: 0042 653e 814d 8b3f 2c8c 34be 2562 cf3d
00000010: 9df7 bfbd 0438 d0bf 35bb 0f40 5740 a13f
00000020: 3901 5abf 48d3 b5bf 5aab a4bf 1c7a a7bc
00000030: 2530 993e 9e28 4e3e 3aaf 28bf f923 cf3e
00000040: 48bf e3be 9aee 503e d54a a7bf 6788 32bf
00000050: bb9e 9b3f c354 72be 83b9 f6bf 3c92 63bf
00000060: 8075 23bf 8352 a83e e829 4fbf 9f7f 4cbf
00000070: e47e 33bf 7c8c 8a3f 45d2 a5be 5b9d dd3e
00000080: 2e18 863f 3fed be3f bf09 c53e c033 f5bf
00000090: 854e 503f d2a6 0cbf 9b6f 7c3e 31e4 c9be
000000a0: 693c 963d f65a 0f3e dc55 29bf 6383 7fbe
000000b0: cc66 3040 6113 7ebe ffe4 bc3e 9a1a 27bf
000000c0: 2a91 8cbf bc21 24bf 0325 ae3f 2eb6 03bd
000000d0: 31fd 0740 6f96 26be 4da4 953f 2caf 93bf
000000e0: aa82 ee3f 0edb c7bf 12c1 1abe eee3 1abf
000000f0: 3fea aa3e 66d4 f5bf 49fb 113f 4ec5 00be
00000100: 1577 32bf fc79 2cc0 acd2 bebe 8a70 1740
00000110: 0b56 a43e a4e3 7e3d c6a1 2140 c558 c6bf
00000120: 7d6c b8bf 4868 873f 85cc 993c d20d 7a3f
00000130: 40ef fabf 8fd1 0d40 4831 25bf 41c8 bf3e
00000140: 18a8 f2be 5ea1 a43f 92f1 883f 523f 26be
00000150: ab33 673f eb25 40bf 0fcd ebbe 9e09 a53f
00000160: ff4d be3f 9b20 963d 8691 aabf d79c 303f
00000170: 30fc 173f 0bb8 9bbe 8964 cf3e 4dbe f5bc
00000180: c115 a13f dfcf b93e efd1 4ebf 3685 4d3f
00000190: 3339 623f 924c 533e 63a4 85bf a4f3 263f
000001a0: df1a 9b3f 413d 37bf 6fd6 47bf f4d5 a5bd
000001b0: 2046 9fbe 1ac7 a4be 41ad b7be 8fe7 86bf
000001c0: 0656 b5bf b180 c0bf d6b9 b8bf 51d5 0bbf
000001d0: ed7c b53f 0c5c 07be 7735 6e3e a543 f1be
000001e0: 18c3 2a3f fb78 15c0 adf0 25bd 9447 0c40
000001f0: aa02 763f ce7d 933f e924 21bf beeb 09bf

encoder.epic.epic.epic_proj.local_0.bias f4 [16]
-0.13169943 -0.06500358 0.14774297 0.021635896 0.049305696 -0.052953143 -0.0016342745 -0.11950414
-0.028631007 0.14374624 0.059153404 -0.025276473 0.19399664 -0.06278146 0.030088803 0.078492485
00000000: 37dc 06be 9920 85bd ef49 173e c33d b13c
00000010: c5f4 493d 65e5 58bd 2735 d6ba 96be f4bd
00000020: 938b eabc 3732 133e d74a 723d 9b10 cfbc
00000030: 0ea7 463e 9193 80bd cb7c f63c abc0 a03d

encoder.epic.epic.epic_proj.local_0.weight_g f4 [16, 1]
0.6494735 0.6509983 0.7165354 0.68429744 0.6147421 0.6521248 0.67839223 0.5894723
0.59973073 0.6364345 0.71069247 0.68747765 0.63419604 0.7885535 0.7465898 0.5761295
00000000: e543 263f d3a7 263f dd6e 373f 1e2e 2f3f
00000010: bd5f 1d3f a7f1 263f 1dab 2d3f a8e7 163f
00000020: f487 193f 5fed 223f f1ef 353f 89fe 2f3f
00000030: ac5a 223f a4de 493f 8220 3f3f 397d 133f

encoder.epic.epic.epic_proj.local_0.weight_v f4 [16, 48]
0.039775815 -0.12540846 0.13147338 0.10551093 0.06689972 0.10492343 0.023957007 0.13467832
0.09408055 0.19546814 -0.06835656 0.06446746 0.021295365 0.122965455 -0.12236472 -0.1237553
0.08011074 0.0036574625 0.13177367 -0.040049188 0.12727413 0.111203246 -0.057146404 0.030777497
0.11862236 0.10579432 -0.09047949 0.0022294268 -0.019923797 0.03556195 -0.14132327 0.010940904
0.078047715 0.1475039 0.027535107 -0.18360709 -0.042957157 -0.022393055 -0.09896929 -0.13170457
0.042901628 0.14413317 -0.10335007 -0.06926402 -0.030134046 0.018160982 -0.039843827 -0.08832105
0.057512376 -0.1176938 0.16532311 -0.021986075 -0.08141933 -0.051215306 0.121953875 0.05412821
0.16314568 0.08523814 0.17099166 -0.07812193 0.00987042 0.076864846 0.07734796 0.0005067956
-0.06837278 -0.12231921 -0.16292156 -0.26399356 0.06412912 -0.1514546 0.022216717 -0.036572333
0.12235961 0.059272096 -0.023770709 -0.06299923 0.044858877 0.05921423 0.24155101 -0.06075466
-0.07158034 0.07357836 0.0942355 0.07259761 0.012573381 -0.01266039 -0.050075263 -0.06259215
-0.12519324 0.0950802 -0.06981122 -0.091489784 -0.011462158 -0.038021635 -0.12137219 0.056016065
-0.05706247 -0.07007382 -0.102379836 0.033114266 0.10839143 -0.021945558 0.087470114 0.062301997
0.113228835 -0.01810809 0.05787048 0.04188661 0.0030824477 0.018179268 -0.06171329 0.06429443
-0.2465168 0.02698493 -0.04440595 -0.016783072 -0.23715694 -0.051217873 0.162545 0.08506805
-0.13186418 -0.02455439 -0.1741098 0.10554223 0.00656125 0.08490039 0.017438835 -0.13096832
0.009246491 0.04499838 0.06324982 -0.027258879 -0.04399102 -0.028146764 -0.03477471 -0.0131169595
-0.024207925 0.015501339 0.07744433 0.005239855 -0.028456626 -0.013109333 0.011793077 0.013713475
-0.14954768 -0.028214373 0.06778975 -0.1089208 -0.08467924 0.01874795 0.0021104184 0.06657715
0.08204888 0.120341025 0.07573419 0.042777587 0.015763007 -0.00086841424 0.0021739674 0.0019581693
-0.26142928 0.020292485 0.04950514 -0.11396912 -0.07897726 -0.020122547 0.10684176 0.12683025
-0.10201951 0.022205709 -0.23079723 0.11470111 -0.009728292 0.21615246 0.009870457 -0.070521936
0.079178326 -0.023269234 0.017471222 -0.008445139 0.047538422 0.05410157 0.027073879 0.041871924
-0.030185834 -0.05312909 0.015293323 0.015885495 0.03745033 -0.02152842 -0.009587015 0.03483135
0.09670628 0.024675509 0.04665904 -0.0032647394 0.046382103 -0.0015953969 0.06699886 0.042368006
-0.15937209 -0.094254665 -0.037340906 -0.020031858 -0.005058037 -0.00093271 -0.01409048 8.0528866e-05
0.14668927 0.0073324097 -0.05058472 0.0866258 0.056617975 0.060970042 -0.04407442 -0.14436395
0.0005847609 -0.05775951 0.13379999 -0.067300424 0.046766713 -0.1669231 -0.11652205 -0.05391016
0.035587683 -0.009638883 0.013208058 -0.03546776 0.026914885 -0.0075058728 0.0155654615 0.021087637
0.069670975 -0.007500723 -0.020133011 -0.004528548 -0.02580952 0.0005058158 0.0053374814 0.027642868
0.16504084 -0.023716375 0.031771284 0.07021641 0.08124352 0.054991625 -0.006180556 -0.028157955
-0.0544814 -0.15784724 -0.100268185 -0.0314711 -0.046764508 -0.01397982 -0.030109594 -0.003228652
00000000: f7eb 223d 136b 00be f5a0 063e 1d16 d83d
00000010: b802 893d 18e2 d63d 7c41 c43c 1de9 093e
00000020: 4ead c03d cd28 483e 86fe 8bbd 8407 843d
00000030: 9e73 ae3c 50d5 fb3d 5b9a fabd 6b73 fdbd
00000040: 1a11 a43d 0ab2 6f3b adef 063e 9e0a 24bd
00000050: 2654 023e 87be e33d 5912 6abd 1721 fc3c
00000060: 48f0 f23d b1aa d83d 504d b9bd 931b 123b
00000070: 3b37 a3bc 68a9 113d 0cb7 10be 7a41 333c
00000080: 7bd7 9f3d 430b 173e 4e91 e13c 7f03 3cbe
00000090: d8f3 2fbd a471 b7bc 69b0 cabd 90dd 06be
000000a0: 9eb9 2f3d a597 133e 34a9 d3bd 4bda 8dbd
000000b0: addb f6bc 57c6 943c 4833 23bd abe1 b4bd
000000c0: 1992 6b3d 7209 f1bd 764a 293e 241c b4bc
000000d0: 2dbf a6bd 24c7 51bd f4c2 f93d 8bb5 5d3d
000000e0: a90f 273e 5591 ae3d 7018 2f3e 64fe 9fbd
000000f0: 8bb7 213c 516b 9d3d 9b68 9e3d 7ada 043a
00000100: 0707 8cbd 7e82 fabd e9d4 26be 2a2a 87be
00000110: 2156 833d ea16 1bbe d5ff b53c dfcc 15bd
00000120: ad97 fa3d 4cc7 723d caba c2bc be05 81bd
00000130: f1bd 373d 9f8a 723d 2659 773e e1d9 78bd
00000140: b798 92bd 40b0 963d 8bfe c03d 0eae 943d
00000150: 9500 4e3c 866d 4fbc b81b 4dbd 5030 80bd
00000160: a832 00be 68b9 c23d 2ff9 8ebd ff5e bbbd
00000170: c6cb 3bbc 93bc 1bbd fc91 f8bd 1a71 653d
00000180: 56ba 69bd dd82 8fbd 85ac d1bd d3a2 073d
00000190: 53fc dd3d 2cc7 b3bc 8823 b33d 6130 7f3d
000001a0: 85e4 e73d 6b57 94bc 9909 6d3d 4b91 2b3d
000001b0: e402 4a3b b0ec 943c 13c7 7cbd ccac 833d
000001c0: e66e 7cbe 800f dd3c 03e3 35bd a77c 89bc
000001d0: 45d9 72be d5c9 51bd 3272 263e 2838 ae3d
000001e0: 6707 07be 4a26 c9bc d749 32be 8626 d83d
000001f0: c1ff d63b 41e0 ad3d e3db 8e3c 8f1c 06be
00000200: 987e 173c 3950 383d 1f89 813d 034e dfbc
00000210: ee2f 34bd 0b94 e6bc ed6f 0ebd 84e8 56bc
00000220: b34f c6bc 54f9 7d3c 229b 9e3d 17b3 ab3b
00000230: df1d e9bc 87c8 56bc c037 413c 7cae 603c
00000240: 0723 19be d421 e7bc 5ad5 8a3d de11 dfbd
00000250: 4f6c adbd 4d95 993c f24e 0a3b 9a59 883d
00000260: 3e09 a83d 5b75 f63d 871a 9b3d 8d37 2f3d
00000270: 6c21 813c 4ba6 63ba 1f79 0e3b a154 003b
00000280: 0fda 85be 6d3c a63c e7c5 4a3d a468 e9bd
00000290: d4be a1bd 0ad8 a4bc dacf da3d cadf 013e
000002a0: 9bef d0bd bfe8 b53c 1c56 6cbe 6ae8 ea3d
000002b0: 6a63 1fbc 1257 5d3e b3b7 213c ce6d 90bd
000002c0: 3f28 a23d 1f9f bebc cf1f 8f3c 7b5d 0abc
000002d0: a6b7 423d 9c99 5d3d 0aca dd3c e581 2b3d
000002e0: 4848 f7bc e49d 59bd d990 7a3c 4c22 823c
000002f0: 8465 193d 5e5c b0bc db12 1dbc 51ab 0e3d
00000300: f10d c63d 4b24 ca3c 8d1d 3f3d 3df5 55bb
00000310: 29fb 3d3d a31c d1ba b336 893d 138a 2d3d
00000320: 7032 23be 9708 c1bd c7f2 18bd da19 a4bc
00000330: e4bd a5bb 1c81 74ba c2db 66bc 9be1 a838
00000340: b635 163e b644 f03b ec31 4fbd de68 b13d
00000350: 40e8 673d b9bb 793d 6187 34bd 25d4 13be
00000360: a44a 193a 3c95 6cbd dd02 093e ced4 89bd
00000370: 748e 3f3d e4ed 2abe 1da3 eebd e6d0 5cbd
00000380: 64c4 113d 68ec 1dbc 9c66 583c a446 11bd
00000390: 9b7c dc3c d3f3 f5bb 4706 7f3c fbbf ac3c
000003a0: a8af 8e3d a0c8 f5bb fced a4bc 3764 94bb
000003b0: 7d6e d3bc b998 043a 0ae6 ae3b 4c73 e23c
000003c0: 7700 293e d848 c2bc 9b22 023d 9fcd 8f3d
000003d0: 0163 a63d e63e 613d 4386 cabb 83ab e6bc
000003e0: e327 5fbd b5a2 21be 6859 cdbd d7e7 00bd
000003f0: 248c 3fbd 9d0b 65bc 65a8 f6bc cb97 53bb

encoder.epic.epic.epic_proj.global_0.bias f4 [16]
0.07356193 0.04963465 0.080281705 0.013854003 -0.14466062 -0.11560905 0.07742622 0.056576803
-0.14765486 0.13327083 -0.034686383 0.1263496 -0.02522138 -0.063993976 0.020773388 -0.056306556
00000000: a3a7 963d b44d 4b3d bc6a a43d e6fb 623c
00000010: ea21 14be 70c4 ecbd a391 9e3d 14bd 673d
00000020: d632 17be 2678 083e 4f13 0ebd ca61 013e
00000030: 119d cebc 460f 83bd f42c aa3c b4a1 66bd

encoder.epic.epic.epic_proj.global_0.weight_g f4 [16, 1]
0.61266726 0.5822502 0.58982414 0.65664613 0.6066872 0.5564497 0.6070946 0.53952384
0.64141047 0.44070575 0.57153046 0.6472772 0.57869864 0.5496147 0.5732164 0.62499094
00000000: c3d7 1c3f 590e 153f b7fe 163f f619 283f
00000010: da4f 1b3f 7d73 0e3f 8d6a 1b3f 3c1e 0a3f
00000020: 7a33 243f 2fa4 e13e d24f 123f f5b3 253f
00000030: 9825 143f 8db3 0c3f 4fbe 123f 68ff 1f3f

encoder.epic.epic.epic_proj.global_0.weight_v f4 [16, 48]
-0.09878483 -0.03941667 0.07856102 -0.07074624 -0.09625439 -0.12910809 -0.048321363 -0.09747932
-0.0069056186 -0.05480844 0.12700224 0.063154645 0.030209994 0.10052894 -0.060565412 -0.08271531
-0.15596098 0.094217226 0.071028315 -0.040022887 0.047479168 0.11552549 0.041935936 -0.07908088
-0.03380786 -0.003804989 0.14739218 0.116727024 -0.07416673 -0.21023032 0.0350484 0.10137666
0.084524624 -0.104194194 -0.03275965 0.0021960367 -0.030966887 0.10358339 -0.15542041 -0.044115324
-0.110912465 0.03747529 -0.12997778 -0.049208116 0.12526941 -0.060363337 -0.12345622 -0.034811046
0.065930314 0.13602552 0.10137897 -0.058755383 -0.10935622 0.06347812 -0.090954594 -0.09430306
0.15326992 -0.07999775 0.05874673 0.13692206 0.1133301 0.14388262 0.06368106 0.004809859
0.055801116 0.018168787 -0.13600887 -0.013581354 0.0706023 0.070392676 -0.098009184 0.034050368
-0.06763647 -0.14821967 -0.123542495 0.12252001 0.10967968 0.1985452 0.16152796 0.035443615
0.15302366 -0.04651004 0.11147356 -0.043797415 0.049326878 -0.06473446 -0.039092254 0.16887794
0.017563617 0.056965668 -0.058168385 0.017305493 -0.13120525 -0.14846629 -0.12878348 0.026658498
-0.11142773 0.15219617 -0.10485282 -0.100672044 -0.1478383 -0.12289618 0.1325139 -0.012711273
-0.116768025 0.14762524 0.13719559 -0.066923276 -0.042910334 0.034320343 -0.05154541 -0.090826534
0.047488965 0.064794034 0.062441844 -0.09896859 0.01844685 -0.13674244 -0.08918903 0.115350306
0.08126713 -0.064062975 0.019990027 -0.10029333 -0.044195738 -0.0551033 -0.006407386 0.0545981
0.062795244 -0.08194885 -0.014315221 -0.09638843 0.11844989 0.029342959 0.08847319 -0.029057585
-0.07528958 -0.06236835 -0.13541149 -0.123509586 -0.15269746 0.019793462 -0.078936726 -0.028121272
-0.0146486275 0.09858068 0.04215908 0.0034847772 -0.032243505 -0.038534004 0.06956543 -0.049593393
-0.05175682 0.05029878 -0.07369159 0.042967364 0.079851195 0.071134225 0.025245653 -0.061248098
0.047943022 0.02846971 -0.07131761 0.02960933 -0.08787317 0.17115034 0.067102365 -0.029891137
-0.11302988 0.13178776 -0.033181258 0.05497425 0.10785113 0.19042681 -0.0052626026 -0.02543328
0.05947893 -0.106423385 0.13689338 0.06217442 0.08867336 -0.0939633 0.032463633 -0.081040695
-0.06575154 -0.09832636 0.056392327 0.07069701 -0.052969184 0.075058475 -0.0905903 -0.009909361
0.10779989 0.020185241 0.078389294 -0.10902902 0.07291822 -0.056134436 0.07980084 -0.003062216
0.0016433403 0.02570831 -0.12816158 0.10447077 -0.069965966 -0.05003817 -0.04512722 -0.07732422
-0.018499691 -0.0076796943 -0.13112646 -0.11528542 -0.029896028 0.096535616 0.12275633 0.07657656
-0.15367937 -0.068003036 -0.05868134 -0.1222915 -0.031035552 0.101968795 0.06793556 -0.08935374
-0.10207793 0.078475386 0.10262006 0.092062324 -0.0006772476 0.024273183 -0.010938737 0.06720592
-0.053354215 -0.11363809 -0.0800319 0.03087027 0.0018446018 -0.013717024 -0.060563754 0.09642568
0.098522365 -0.11158837 0.12954313 0.047264684 0.05009696 0.07812935 -0.094139405 -0.07695947
-0.089085884 0.0742406 0.07486256 -0.014831226 0.031702355 -0.046063885 0.072103426 0.04263862
00000000: b34f cabd 6073 21bd 9ae4 a03d 68e3 90bd
00000010: 0621 c5bd e934 04be 9fec 45bd 3da3 c7bd
00000020: 8748 e2bb d17e 60bd e00c 023e 3957 813d
00000030: f37a f73c 1ee2 cd3d 7013 78bd a566 a9bd
00000040: 3cb4 1fbe f6f4 c03d 4b77 913d 0aef 23bd
00000050: 8479 423d a198 ec3d 04c5 2b3d 28f5 a1bd
00000060: 1c7a 0abd 1f5d 79bb faed 163e 940e ef3d
00000070: bae4 97bd 9e46 57be e98e 0f3d 919e cf3d
00000080: 3f1b ad3d c463 d5bd fc2e 06bd 62eb 0f3b
00000090: 45ae fdbc 8723 d43d 8726 1fbe 45b2 34bd
000000a0: 1326 e3bd b17f 193d e518 05be 738e 49bd
000000b0: a046 003e 8c3f 77bd 9dd6 fcbd 0796 0ebd
000000c0: 7906 873d 464a 0b3e c79f cf3d 7ca9 70bd
000000d0: 27f6 dfbd d100 823d 6746 babd f621 c1bd
000000e0: caf2 1c3e dcd5 a3bd 69a0 703d 4c35 0c3e
000000f0: 9d19 e83d f755 133e 376b 823d 069c 9d3b
00000100: b68f 643d b5d6 943c e945 0bbe 5484 5ebc
00000110: f097 903d 092a 903d 0ab9 c8bd 6678 0b3d
00000120: fd84 8abd e6c6 17be d903 fdbd c5eb fa3d
00000130: bd9f e03d 6f4f 4b3e 9667 253e 532d 113d
00000140: 3cb2 1c3e 5081 3ebd 404c e43d eb64 33bd
00000150: fb0a 4a3d 8093 84bd 331f 20bd 57ee 2c3e
00000160: 93e1 8f3c d554 693d f941 6ebd 40c4 8d3c
00000170: ab5a 06be 8c07 18be d1df 03be ec62 da3c
00000180: 3934 e4bd 50d9 1b3e 13bd d6bd 252d cebd
00000190: ec62 17be feb0 fbbd b9b1 073e f142 50bc
000001a0: 1324 efbd 122b 173e 007d 0c3e 120f 89bd
000001b0: bfc2 2fbd 7d93 0c3d 4821 53bd 4303 babd
000001c0: ca83 423d bcb2 843d 05c3 7f3d 0bb0 cabd
000001d0: d91d 973c 3606 0cbe bda8 b6bd c83c ec3d
000001e0: 626f a63d 7333 83bd 20c2 a33c 9766 cdbd
000001f0: 9706 35bd ffb3 61bd 0df5 d1bb 42a2 5f3d
00000200: cb9a 803d ccd4 a7bd 648a 6abc 4c67 c5bd
00000210: db95 f23d a560 f03c 6f31 b53d 2c0a eebc
00000220: 6c31 9abd f475 7fbd 4fa9 0abe 98f2 fcbd
00000230: b95c 1cbe e625 a23c 94a9 a1bd 955e e6bc
00000240: cc00 70bc abe4 c93d 00af 2c3d dc60 643b
00000250: c411 04bd d5d5 1dbd 5278 8e3d 7122 4bbd
00000260: f6fe 53bd 1806 4e3d 9eeb 96bd 8cfe 2f3d
00000270: 0689 a33d d2ae 913d f9cf ce3c 49df 7abd
00000280: e75f 443d 4f39 e93c f80e 92bd 448f f23c
00000290: d9f6 b3bd 0942 2f3e f76c 893d 42de f4bc
000002a0: 367c e7bd 5ff3 063e 12e9 07bd ae2c 613d
000002b0: 0ee1 dc3d 3fff 423e e971 acbb 7459 d0bc
000002c0: 2ea0 733d 81f4 d9bd c72d 0c3e 9baa 7e3d
000002d0: 619a b53d d56f c0bd 96f8 043d aaf8 a5bd
000002e0: bea8 86bd 555f c9bd a4fb 663d 98c9 903d
000002f0: 37f6 58bd 42b8 993d 6887 b9bd df5a 22bc
00000300: 30c6 dc3d 855b a53c 918a a03d 9b4a dfbd
00000310: 2656 953d 39ed 65bd 9f6e a33d 76af 48bb
00000320: 5a65 d73a 3c9a d23c ca3c 03be c5f4 d53d
00000330: 514a 8fbd d3f4 4cbd 52d7 38bd 295c 9ebd
00000340: aa8c 97bc f2a5 fbbb 0446 06be c31a ecbd
00000350: 84e8 f4bc 77b4 c53d ac67 fb3d 2cd4 9c3d
00000360: 205e 1dbe 2d45 8bbd d85b 70bd f773 fabd
00000370: 453e febc 04d5 d03d cd21 8b3d 18ff b6bd
00000380: 3c0e d1bd b4b7 a03d 772a d23d 2c8b bc3d
00000390: 5189 31ba 8ed8 c63c 6338 33bc 42a3 893d
000003a0: f389 5abd 16bb e8bd c4e7 a3bd a6e3 fc3c
000003b0: 91c6 f13a 5ebd 60bc b311 78bd d47a c53d
000003c0: 18c6 c93d 7188 e4bd f4a6 043e 9d98 413d
000003d0: 7832 4d3d 4802 a03d 29cc c0bd ed9c 9dbd
000003e0: a972 b6bd 750b 983d 8b51 993d acfe 72bc
000003f0: 54da 013d 7cad 3cbd f6aa 933d d5a5 2e3d

encoder.epic.epic.epic_proj.global_1.bias f4 [16]
0.070299804 -0.04344176 -0.006330442 0.18563034 -0.13876656 0.13484211 -0.011969136 0.20557083
0.07421189 -0.090031736 0.14188607 0.07403453 -0.123710595 0.033328988 0.1716001 -0.09719678
00000000: 58f9 8f3d fdef 31bd 996f cfbb e115 3e3e
00000010: d218 0ebe 0d14 0a3e 321a 44bc 2981 523e
00000020: 67fc 973d 8f62 b8bd 954a 113e 6a9f 973d
00000030: fb5b fdbd fa83 083d f0b7 2f3e 1b0f c7bd

encoder.epic.epic.epic_proj.global_1.weight_g f4 [16, 1]
0.61998844 0.5641102 0.57946986 0.56602603 0.59128296 0.6355389 0.61671317 0.50012267
0.5153605 0.61878407 0.5388118 0.56856453 0.621868 0.6112775 0.5766243 0.60492724
00000000: 90b7 1e3f 8769 103f 2358 143f 15e7 103f
00000010: 525e 173f adb2 223f eae0 1d3f 0a08 003f
00000020: aaee 033f a268 1e3f 92ef 093f 728d 113f
00000030: be32 1f3f af7c 1c3f a69d 133f 83dc 1a3f

encoder.epic.epic.epic_proj.global_1.weight_v f4 [16, 16]
0.1856374 0.17666624 -0.030325748 -0.25172353 0.21497625 -0.032944623 -0.16584526 0.1610127
0.25238273 0.08814724 -0.14146939 -0.2476297 0.031118523 0.07676933 -0.14213851 0.14546232
0.027591353 0.09106904 0.020219943 0.18616569 0.09068955 0.20591979 0.20103842 -0.016644336
0.18227333 -0.1096021 0.17704132 0.07563301 0.12735029 -0.15284887 -0.06947281 0.08475247
0.23290852 -0.16605654 -0.07017152 -0.18492165 0.19426921 -0.019971026 0.062119603 0.110882066
0.13045402 0.0692689 -0.081147484 -0.15666676 0.22439057 0.1459953 0.0021070654 -0.16318908
-0.10806804 0.27644137 0.0063311188 -0.07628942 0.1432621 0.031031653 -0.02084053 0.018885404
-0.16345394 -0.048576463 -0.053784672 0.14961883 0.26330107 0.091179915 0.12304009 0.05176189
-0.21721795 -0.05174749 0.046355505 0.060537048 -0.17105128 0.23397602 0.1860288 0.23837161
0.040669605 0.18793385 -0.111747734 -0.11215295 -0.10834151 -0.013594185 0.0883571 0.19733585
-0.014864233 -0.2301427 0.18201888 0.19373374 0.24077837 -0.13491823 -0.19264215 -0.11415834
-0.14387849 -0.16284804 0.037110973 -0.06607564 -0.13713263 -0.1044108 -0.07103932 -0.26291516
0.22911353 0.037745662 -0.103794575 -0.20056744 0.06475688 -0.09839512 0.22476783 -0.16529387
0.16535361 -0.046967123 0.1679418 -0.1224132 -0.15527113 -0.016760236 0.15578614 0.15902713
0.044652566 -0.20104542 0.18328324 0.16456014 -0.22610565 -0.008109639 -0.0546276 0.021309039
-0.12885427 0.1482398 -0.009498814 -0.09128547 -0.15613489 0.105849266 0.15946205 -0.05071179
-0.2599222 0.07089528 0.16344334 -0.22830448 -0.04031855 -0.11600953 0.012257921 -0.1079635
-0.044046484 -0.14848205 0.17425817 0.16182025 0.047367856 -0.102675475 -0.16471621 0.005725477
0.07467033 0.09665139 -0.26975158 -0.24963123 0.14992724 0.0044058543 0.06801918 0.013728414
0.18450819 -0.022414284 -0.18784228 0.07544424 -0.22103187 -0.2569566 0.23263474 -0.18473649
0.025627928 -0.23163395 0.07477892 -0.23948662 -0.18349247 0.011935511 0.0017177749 -0.047134195
-0.026855161 0.098987795 -0.13950893 -0.14912674 -0.06064231 -0.03995124 0.036596294 -0.2194319
0.1676312 0.101386115 0.08254094 -0.023878379 -0.16180806 -0.079532236 -0.08399745 0.028271474
0.1609614 0.20711991 -0.11288159 0.088656925 -0.18665418 0.06738349 0.09081017 0.15682395
0.23612095 0.12832884 0.014277813 -0.10147646 0.13926604 0.25291348 -0.13519792 -0.11064987
0.22156593 0.2655965 0.14455844 -0.14503881 0.031630892 0.13701284 0.08260903 0.16839845
0.23722105 -0.1715809 -0.049868595 -0.06966696 -0.18937285 0.08553443 0.10049147 -0.051049367
0.17735541 -0.090439476 -0.11114843 0.10474648 -0.19894032 0.21492201 -0.14859755 -0.12267469
-0.18720506 0.0017828734 -0.101738065 -0.19230168 -0.21106803 -0.15267491 -0.011574882 0.17867762
-0.18419619 -0.048551146 -0.067495115 -0.049464963 -0.1435759 0.1338706 0.015003718 0.07964385
0.0556893 0.022437993 -0.087279074 0.292822 -0.2143227 -0.13379994 -0.17279916 -0.056369413
-0.2060304 -0.15274236 -0.10453738 -0.099633366 -0.037983615 -0.2089701 -0.014342512 0.10280022
00000000: bb17 3e3e ffe7 343e b46d f8bc e8e1 80be
00000010: bc22 5c3e f1f0 06bd 57d3 29be 83e0 243e
00000020: 4f38 813e 8a86 b43d 5add 10be a492 7dbe
00000030: 46ec fe3c 3d39 9d3d c28c 11be 13f4 143e
00000040: 4307 e23c 6882 ba3d 4ba4 a53c 38a2 3e3e
00000050: 71bb b93d a3dc 523e 04dd 4d3e b459 88bc
00000060: dca5 3a3e 1177 e0bd 524a 353e 7be5 9a3d
00000070: 1d68 023e 6a84 1cbe c347 8ebd b492 ad3d
00000080: 927f 6e3e ba0a 2abe 16b6 8fbd 1a5c 3dbe
00000090: 82ee 463e 479a a3bc 2071 7e3d 2316 e33d
000000a0: bd95 053e dadc 8d3d a730 a6bd 406d 20be
000000b0: a4c6 653e cb7f 153e b116 0a3b 0a1b 27be
000000c0: c752 ddbd b989 8d3e 4675 cf3b a13d 9cbd
000000d0: 4db3 123e 1836 fe3c c2b9 aabc 90b5 9a3c
000000e0: 7860 27be 1df8 46bd 514d 5cbd ae35 193e
000000f0: 66cf 863e 89bc ba3d 71fc fb3d 4704 543d
00000100: 626e 5ebe 2df5 53bd 45df 3d3d b2f5 773d
00000110: 1128 2fbe 6997 6f3e 557e 3e3e b017 743e
00000120: 2c95 263d bb71 403e ffdb e4bd 72b0 e5bd
00000130: 27e2 ddbd 25ba 5ebc 91f4 b43d 6912 4a3e
00000140: 1d89 73bc 87aa 6bbe 2863 3a3e 2362 463e
00000150: 9b8e 763e 0128 0abe fc43 45be d9cb e9bd
00000160: e254 13be a3c1 26be ad01 183d aa52 87bd
00000170: 7f6c 0cbe 54d5 d5bd 107d 91bd d19c 86be
00000180: bd9c 6a3e 329b 1a3d 4092 d4bd 8d61 4dbe
00000190: 419f 843d 6183 c9bd 8a29 663e cc42 29be
000001a0: 7552 293e 9960 40bd eff8 2b3e c6b3 fabd
000001b0: 65ff 1ebe c34c 89bc 6786 1f3e 02d8 223e
000001c0: 9ce5 363d dade 4dbe 9aae 3b3e 7482 283e
000001d0: 3d88 67be 4bde 04bc 31c1 5fbd 4b90 ae3c
000001e0: 60f2 03be 2dcc 173e eaa0 1bbc e0f3 babd
000001f0: d3e1 1fbe 80c7 d83d 054a 233e 2ab7 4fbd
00000200: 8614 85be 8b31 913d b15d 273e a6c8 69be
00000210: 1025 25bd 6896 edbd 72d5 483c f81b ddbd
00000220: 166a 34bd ae0b 18be bc70 323e 35b4 253e
00000230: cc04 423d 8547 d2bd 5eab 28be c89c bb3b
00000240: c2ec 983d 2af1 c53d e11c 8abe 549f 7fbe
00000250: 8786 193e fc5e 903b a44d 8b3d 24ed 603c
00000260: b7ef 3c3e 299e b7bc ba59 40be 8282 9a3d
00000270: 2e56 62be d18f 83be cd37 6e3e 902b 3dbe
00000280: a9f1 d13c 7331 6dbe b125 993d fb3b 75be
00000290: 73e5 3bbe 298d 433c f626 e13a c90f 41bd
000002a0: 5bff dbbc 1dba ca3d 6edb 0ebe aeb4 18be
000002b0: 1264 78bd e9a3 23bd ffe5 153d c2b2 60be
000002c0: 83a7 2b3e 86a3 cf3d 390b a93d 979c c3bc
000002d0: 03b1 25be cce1 a2bd db06 acbd 9499 e73c
000002e0: 11d3 243e 3e17 543e 772e e7bd c391 b53d
000002f0: 4622 3fbe 5b00 8a3d affa b93d 7596 203e
00000300: b1c9 713e a368 033e 7ded 693c e4d2 cfbd
00000310: c29b 0e3e e07d 813e 5371 0abe 669c e2bd
00000320: 2ee2 623e 44fc 873e 2107 143e 0e85 14be
00000330: 658f 013d 184d 0c3e ec2e a93d a570 2c3e
00000340: 13ea 723e e7b2 2fbe 0343 4cbd 8dad 8ebd
00000350: f5ea 41be ad2c af3d 79ce cd3d 2419 51bd
00000360: a89c 353e 5538 b9bd caa1 e3bd 5385 d63d
00000370: 03b7 4bbe 8414 5c3e f529 18be de3c fbbd
00000380: afb2 3fbe 4eaf e93a 0c5c d0bd bbea 44be
00000390: 3822 58be d056 1cbe 93a4 3dbc 44f7 363e
000003a0: ed9d 3cbe 91dd 46bd e13a 8abd c69b 4abd
000003b0: 9005 13be 6015 093e 28d2 753c 511c a33d
000003c0: 771a 643d e2cf b73c 5fbf b2bd c4ec 953e
000003d0: 6977 5bbe da02 09be 43f2 30be 9de3 66bd
000003e0: a2f9 52be 7e68 1cbe b217 d6bd 940c ccbd
000003f0: b594 1bbd 42fc 55be dbfc 6abc ec88 d23d

encoder.epic.epic.epic_proj.global_2.bias f4 [16]
0.18701404 0.040859524 0.15558863 0.096226566 -0.16794619 0.15627106 0.14115293 0.15713067
0.20502082 0.17097266 -0.07936314 -0.03482231 -0.2413015 -0.046902783 0.013859914 -0.17666006
00000000: 9c80 3f3e 515c 273d a052 1f3e 6f12 c53d
00000010: 16fa 2bbe 8505 203e 658a 103e dde6 203e
00000020: faf0 513e 7513 2f3e 2489 a2bd d7a1 0ebd
00000030: be17 77be 221d 40bd b114 633c 60e6 34be

encoder.epic.epic.epic_proj.global_2.weight_g f4 [16, 1]
0.54515284 0.5449774 0.5761495 0.6587601 0.52018166 0.6199913 0.45088267 0.54243255
0.63681155 0.6314016 0.5810278 0.5415531 0.691461 0.53332293 0.59257257 0.4792691
00000000: 238f 0b3f a483 0b3f 897e 133f 80a4 283f
00000010: a02a 053f c0b7 1e3f 18da e63e dcdc 0a3f
00000020: 1506 233f 89a3 213f 3dbe 143f 39a3 0a3f
00000030: 9703 313f da87 083f d6b2 173f c262 f53e

encoder.epic.epic.epic_proj.global_2.weight_v f4 [16, 16]
0.2089174 0.069709755 -0.097857565 -0.1613075 0.07592906 -0.17378148 0.07485372 0.26049626
0.07497085 0.16106462 -0.19533026 0.010314327 -0.10171439 0.2658388 -0.24993485 0.2394594
0.191123 -0.1598311 -0.00827205 -0.053132538 -0.076665215 -0.22951682 -0.03049485 -0.10033487
0.17526361 -0.123637214 0.2352262 -0.022865657 0.12750229 0.039381176 0.24342182 -0.13672018
0.17787184 -0.08585722 -0.1140515 0.047481608 -0.24240613 0.018798582 -0.24551801 -0.08257645
-0.14075723 0.046695936 -0.25462756 0.12810384 -0.0072789285 -0.023519777 -0.22183831 0.26283777
0.18499596 0.15785477 -0.09660017 0.119889595 0.16768304 -0.11212994 0.089716226 -0.137311
0.03365 -0.08674765 0.074749574 -0.12548353 -0.10124374 -0.10445739 -0.17040141 -0.005103213
-0.16142254 -0.13399112 0.17963035 -0.15194616 -0.09704419 -0.13843052 0.08657076 -0.045462012
0.019758636 0.21028605 -0.23418283 -0.10838105 -0.1401984 -0.10514835 -0.071563385 -0.017153692
0.088006794 0.2585036 -0.17046589 0.024490068 -0.050653506 -0.17017497 -0.11459104 -0.047576983
0.24369043 0.04291428 0.117657445 0.2512096 0.12227772 0.012625359 0.22858092 -0.18487734
-0.20221147 -0.005220132 0.021992827 -0.07006513 -0.12122323 -0.08751207 0.11675035 0.052055165
-0.049138702 -0.19298333 0.15334122 -0.018183907 -0.009033747 0.0923052 -0.12927893 0.12933175
0.182724 -0.17068227 0.1382839 -0.018180015 -0.1399749 0.028103473 -0.1728384 -0.05805898
-0.062340546 0.116540655 0.12700644 -0.13178626 -0.21741188 0.13823752 -0.11594737 -0.05224347
-0.14368226 0.24085903 -0.16529489 -0.04612964 0.16486378 0.05381191 0.21353191 0.09056327
0.11086468 -0.14941455 -0.21868019 0.17012605 -0.19702168 0.16838278 -0.03790257 0.27615544
-0.16421507 0.008141896 0.010377212 -0.24472481 -0.018859485 -0.09870019 0.0041422755 -0.16897738
0.20047502 0.06261406 0.1889734 -0.09667482 0.14552656 0.21231858 -0.1915253 0.1733794
-0.20929779 -0.055612642 0.032226827 0.1995012 0.18744522 0.121384345 -0.2430891 -0.07157974
0.12043095 -0.21426035 -0.2040353 0.16837867 -0.084941134 0.042386834 0.0679277 0.09418913
0.22188595 0.2273992 -0.20030111 -0.04611446 0.14078511 0.057413872 -0.08289948 0.124216266
0.07721587 0.25523195 -0.10028619 -0.25422603 -0.037464257 0.058041077 -0.094934285 -0.0017368022
0.08080166 0.18724203 0.25885692 0.113444366 -0.038784046 -0.18239428 -0.0016179036 -0.24832714
-0.02239427 0.24192855 0.24864584 0.24111557 0.19378522 -0.18914698 0.14875822 -0.25964847
0.15249185 0.08020462 -0.20558137 0.022237577 0.20622472 -0.19867331 -0.008263869 0.05112686
0.07895127 0.08836277 -0.18726602 -0.15551166 -0.05915762 0.16916086 0.032516483 0.18008319
0.07173676 -0.13632296 0.21636602 -0.24630147 -0.082889356 -0.03358743 0.20854688 -0.2105489
-0.047102876 0.1445347 -0.0692976 -0.014752293 -0.08583319 -0.19429053 -0.20037964 0.02245097
0.17892148 -0.19182962 0.15781431 -0.0688035 -0.044358805 0.01437703 -0.13186425 0.15309986
0.07926641 -0.15325502 -0.07932077 -0.10475062 0.15194526 0.13312982 0.1858214 -0.013940134
00000000: 71ee 553e fdc3 8e3d 8c69 c8bd cb2d 25be
00000010: b280 9b3d c6f3 31be e84c 993d c45f 853e
00000020: 518a 993d 20ee 243e a804 48be 6cfd 283c
00000030: a24f d0bd 061c 883e ecee 7fbe d834 753e
00000040: bfb5 433e c4aa 23be 7e87 07bc 81a1 59bd
00000050: a702 9dbd 7506 6bbe 56d0 f9bc 5e7c cdbd
00000060: 4e78 333e 8235 fdbd 23df 703e c250 bbbc
00000070: f68f 023e 284e 213d 9243 793e 6000 0cbe
00000080: 0924 363e e9d5 afbd d593 e9bd 137c 423d
00000090: 5039 78be 7cff 993c 1369 7bbe d81d a9bd
000000a0: aa22 10be 3d44 3f3d 8b5e 82be a72d 033e
000000b0: 1484 eebb 8cac c0bc 9529 63be ac92 863e
000000c0: 956f 3d3e aea4 213e 4fd6 c5bd ad88 f53d
000000d0: 1ab5 2b3e 62a4 e5bd 24bd b73d 419b 0cbe
000000e0: 95d4 093d c0a8 b1bd 4e16 993d c17e 00be
000000f0: e158 cfbd c2ed d5bd b57d 2ebe da38 a7bb
00000100: f34b 25be f834 09be 05f1 373e c697 1bbe
00000110: 1bbf c6bd bbc0 0dbe 034c b13d 6036 3abd
00000120: dddc a13c 3a55 573e a0cd 6fbe e2f6 ddbd
00000130: 2b90 0fbe 0558 d7bd d38f 92bd e685 8cbc
00000140: e83c b43d 955a 843e 9c8e 2ebe 659f c83c
00000150: 0d7a 4fbd 5942 2ebe b5ae eabd 15e0 42bd
00000160: fc89 793e e2c6 2f3d 63f6 f03d 8b9e 803e
00000170: be6c fa3d 98da 4e3c 1e11 6a3e 7c50 3dbe
00000180: 8610 4fbe a40d abbb 4d2a b43c 4f7e 8fbd
00000190: e343 f8bd 8739 b3bd cf1a ef3d cc37 553d
000001a0: aa45 49bd 6c9d 45be 7b05 1d3e 6bf6 94bc
000001b0: 4802 14bc 820a bd3d b261 04be 8b6f 043e
000001c0: 001c 3b3e 55c7 2ebe 4b9a 0d3e 41ee 94bc
000001d0: 9555 0fbe 4139 e63c 8dfc 30be 41cf 6dbd
000001e0: cd58 7fbd deac ee3d fa0d 023e faf2 06be
000001f0: 38a1 5ebe 238e 0d3e d175 edbd 40fd 55bd
00000200: 7121 13be c0a3 763e 1043 29be 6ff2 3cbd
00000210: 0dd2 283e e169 5c3d 1ca8 5a3e 3c79 b93d
00000220: 050d e33d 2100 19be b3ed 5fbe 8635 2e3e
00000230: 0dc0 49be 896c 2c3e ba3f 1bbd 3f64 8d3e
00000240: ff27 28be 9665 053c 2f05 2a3c 2499 7abe
00000250: 357f 9abc 5323 cabd edbb 873b 6808 2dbe
00000260: 5349 4d3e cd3b 803d 3e82 413e 73fd c5bd
00000270: ea04 153e 0b6a 593e 351f 44be 5f8a 313e
00000280: 2952 56be 15ca 63bd 4700 043d 0b4a 4c3e
00000290: a4f1 3f3e 5b98 f83d 59ec 78be 6698 92bd
000002a0: 80a4 f63d 1167 5bbe a1ee 50be 756b 2c3e
000002b0: 9ef5 adbd d19d 2d3d ae1d 8b3d 3be6 c03d
000002c0: 1236 633e 56db 683e bc1b 4dbe 84e2 3cbd
000002d0: f929 103e cf2a 6b3d 34c7 a9bd 1965 fe3d
000002e0: 5b23 9e3d c3ad 823e d962 cdbd ea29 82be
000002f0: 1f74 19bd 7bbc 6d3d e86c c2bd 69a5 e3ba
00000300: 577b a53d 60bc 3f3e e588 843e 8555 e83d
00000310: 05dc 1ebd 91c5 3abe d60f d4ba 7849 7ebe
00000320: 3074 b7bc 1ebc 773e 049d 7e3e 00e7 763e
00000330: a26f 463e bfaf 41be 1354 183e a5f0 84be
00000340: d326 1c3e 5242 a43d ec83 52be 942b b63c
00000350: 932c 533e 0471 4bbe 2e65 07bc 666a 513d
00000360: 34b1 a13d 8af7 b43d aac2 3fbe 733e 1fbe
00000370: 434f 72bd 8138 2d3e 0130 053d ba67 383e
00000380: b9ea 923d 3f98 0bbe 0e8f 5d3e 7436 7cbe
00000390: e5c1 a9bd f992 09bd 508d 553e 219a 57be
000003a0: f2ee 40bd e800 143e e6eb 8dbd 9ab3 71bc
000003b0: 50c9 afbd 19f4 46be 5230 4dbe 19eb b73c
000003c0: 3137 373e fc6e 44be 139a 213e d9e8 8cbd
000003d0: 94b1 35bd a28d 6b3c 6c07 07be 36c6 1c3e
000003e0: 6d56 a23d e2ee 1cbe ee72 a2bd 7e87 d6bd
000003f0: 8a97 1b3e 2f53 083e f747 3e3e 2965 64bc

encoder.epic.epic.epic_layers.0.fc_global1.bias f4 [16]
-0.1319221 -0.012529017 -0.09547218 0.07766392 -0.088099904 -0.08127507 0.1499452 -0.04913027
-0.14153768 0.071959406 0.017310597 0.067743234 0.07494753 0.08613558 0.010172731 0.0665303
00000000: 9616 07be 8246 4dbc eb86 c3bd 430e 9f3d
00000010: b96d b4bd 8b73 a6bd 3c8b 193e d23c 49bd
00000020: 41ef 10be 745f 933d f4ce 8d3c f7bc 8a3d
00000030: 177e 993d da67 b03d 87ab 263c 0a41 883d

encoder.epic.epic.epic_layers.0.fc_global1.weight_g f4 [16, 1]
0.5816538 0.5480171 0.57268536 0.5404634 0.48386896 0.51659954 0.65589595 0.62718326
0.6533091 0.5745653 0.58679694 0.55989075 0.61633134 0.58225995 0.5657675 0.5253264
00000000: 43e7 143f d94a 0c3f 829b 123f cf5b 0a3f
00000010: acbd f73e de3f 043f cce8 273f 158f 203f
00000020: 443f 273f b616 133f 5338 163f 0055 0f3f
00000030: e4c7 1d3f fd0e 153f 24d6 103f ca7b 063f

encoder.epic.epic.epic_layers.0.fc_global1.weight_v f4 [16, 64]
0.039236613 0.012263949 -0.02406286 0.078164764 0.08801805 0.06706194 -0.06527864 -0.047072675
0.09530406 -0.12086381 -0.033749815 0.08214256 -0.09769914 0.076493606 0.029243346 0.044213668
-0.123654984 -0.09209543 0.05307313 0.09604793 -0.055510774 0.0049934047 0.036086127 0.017483963
-0.051473945 0.010837741 -0.027790872 -0.006880116 -0.017417973 -0.13994342 0.007105911 -0.10132432
-0.11485086 -0.08652289 -0.07686781 -0.07820513 0.024623072 -0.046457604 0.07179022 0.017877314
0.11103105 -0.018829107 0.091199085 0.046017192 0.09663696 -0.0868525 -0.014103129 0.055860665
-0.02803233 0.0503609 0.08637752 0.09637657 0.07567228 -0.1075137 -0.0953769 0.014834872
0.06303117 0.026360042 0.0857898 -0.09882942 0.1218991 0.06429595 0.09878874 -0.061250657
-0.03273229 -0.03570068 0.047536325 0.085069254 -0.09317359 -0.002892737 -0.08134937 -0.08680735
-0.030237015 -0.042665917 -0.0041051726 -0.0734496 0.027894795 -0.08835361 0.0868208 -0.09385864
0.08082399 -0.117771894 -0.088860184 -0.09996347 0.03289719 -0.067567 -0.068708085 0.063967094
0.012523695 0.07449726 -0.066641614 0.09601465 -0.028965553 -0.052826934 0.12255926 -0.080633186
0.09151697 -0.041313928 -0.03530438 -0.09092493 0.10729695 -0.065077834 0.11233699 -0.13203856
-0.108862944 0.08422741 0.00020159253 0.05379356 -0.10330983 -0.022279287 0.09545851 0.060435593
0.033333153 -0.12284165 0.058356576 0.05875044 -0.057617363 -0.010306966 -0.04344462 0.010418788
0.10695235 -0.05848343 0.13498384 -0.0259537 -0.08037844 0.05076622 -0.050202724 0.13175943
-0.049342513 0.008126278 -0.10560073 -0.037687756 -0.053433403 0.06556886 -0.07997985 -0.100949526
-0.05013284 -0.04871031 -0.044638086 -0.046217732 -0.051786166 0.06068359 0.051611923 -0.09017359
-0.029147493 -0.028128697 0.07790144 -0.06182251 0.14446379 -0.062354725 0.06141514 0.111705706
-0.0010937764 0.06943111 -0.0027481825 -0.09855436 -0.09694865 0.11448001 0.04912687 0.11805588
-0.018021341 0.090419896 0.0012274384 -0.083287716 -0.04787748 0.018392608 -0.030620916 0.049941137
0.05285326 0.0038979712 0.044157162 -0.05202716 0.075481854 0.02993144 -0.09788257 -0.091350846
-0.036239747 -0.08184006 -0.03875145 -0.11191815 -0.11885332 -0.062281717 -0.025911879 -0.037590265
-0.088759325 0.036840566 -0.017947184 -0.010787314 -0.0043734373 -0.05840452 0.03656328 0.00026258774
0.062448874 0.13809074 -0.005124516 -0.09057866 0.20019028 -0.08166787 -0.09355492 -0.113278896
-0.049733113 0.10824319 0.0539786 0.016513465 0.02133086 -0.1359139 0.1178226 0.06127051
-0.0625043 0.021492189 0.031483877 0.083138525 0.10199045 0.040428318 -0.06885137 -0.017328953
-0.079889715 -0.02182983 -0.05518963 0.011097412 0.1072652 -0.049108412 0.11177413 -0.09411598
-0.12789425 0.13528863 -0.13270003 0.0030206619 0.13015887 0.03912885 0.070818074 0.09538438
0.007286862 -0.11350485 -0.15556219 0.1031798 -0.13125736 0.028266812 -0.082142755 0.15345092
0.05217178 0.088773675 0.078144826 -0.10782983 -0.0904024 -0.0158254 -0.14950766 0.0044063767
-0.10280484 -0.01272619 0.123358056 -0.12581842 0.1268997 0.10196089 -0.09207572 0.16667221
00000000: 92b6 203d bbee 483c 7a1f c5bc d914 a03d
00000010: cf42 b43d c557 893d cfb0 85bd 47cf 40bd
00000020: c62e c33d 7287 f7bd 3f3d 0abd 5c3a a83d
00000030: 7d16 c8bd aea8 9c3d be8f ef3c 6419 353d
00000040: d33e fdbd 879c bcbd 3663 593d c7b4 c43d
00000050: 445f 63bd b79f a33b 0ccf 133d 873a 8f3c
00000060: 58d6 52bd c890 313c afa9 e3bc 9972 e1bb
00000070: 23b0 8ebc 544d 0fbe b4d8 e83b 2083 cfbd
00000080: ed36 ebbd ea32 b1bd df6c 9dbd 032a a0bd
00000090: 53b6 c93c 544a 3ebd c006 933d 7273 923c
000000a0: 3f64 e33d 803f 9abc 96c6 ba3d 867c 3c3d
000000b0: 99e9 c53d b9df b1bd cf10 67bc 27ce 643d
000000c0: 0fa4 e5bc 3b47 4e3d b2e6 b03d 1461 c53d
000000d0: 11fa 9a3d 2530 dcbd f754 c3bd f70d 733c
000000e0: 7c16 813d 04f1 d73c 90b2 af3d 1467 cabd
000000f0: 3ca6 f93d 98ad 833d c051 ca3d f8e1 7abd
00000100: 4b12 06bd e03a 12bd 73b5 423d ca38 ae3d
00000110: ccd1 bebd 1394 3dbb 809a a6bd 0dc8 b1bd
00000120: 9eb3 f7bc 75c2 2ebd af84 86bb be6c 96bd
00000130: a083 e43c bdf2 b4bd 1bcf b13d f538 c0bd
00000140: 0c87 a53d 6432 f1bd 54fc b5bd a6b9 ccbd
00000150: 34bf 063d 9160 8abd d3b6 8cbd 2e01 833d
00000160: 2f30 4d3c 0592 983d 667b 88bd 54a3 c43d
00000170: 2b49 edbc 0e61 58bd 5900 fb3d 0323 a5bd
00000180: 406d bb3d cb38 29bd 539b 10bd da36 babd
00000190: 81be db3d 8747 85bd f010 e63d 1e35 07be
000001a0: 89f3 debd 6c7f ac3d 9562 5339 a356 5c3d
000001b0: 1b94 d3bd 0d83 b6bc c07f c33d 508b 773d
000001c0: 5888 083d 6794 fbbd 4e07 6f3d 4da4 703d
000001d0: 2f00 6cbd 8cde 28bc fcf2 31bd 90b3 2a3c
000001e0: d509 db3d 528c 6fbd 3439 0a3e db9c d4bc
000001f0: 749d a4bd 3df0 4f3d 5fa1 4dbd f2eb 063e
00000200: 601b 4abd 1524 053c 3245 d8bd 7a5e 1abd
00000210: fcdc 5abd f748 863d 7acc a3bd a0be cebd
00000220: 1858 4dbd 7684 47bd 6dd6 36bd ce4e 3dbd
00000230: bb1d 54bd 5b8f 783d 0667 533d eeac b8bd
00000240: b9c6 eebc 276e e6bc ca8a 9f3d 9a39 7dbd
00000250: 51ee 133e ab67 7fbd 718e 7b3d f6c5 e43d
00000260: 0c5d 8fba e631 8e3d da1a 34bb ded6 c9bd
00000270: 048d c6bd 7f74 ea3d 4239 493d 48c7 f13d
00000280: 7ea1 93bc 112e b93d 00e2 a03a c092 aabd
00000290: 2d1b 44bd 18ac 963c b7d8 fabc 148f 4c3d
000002a0: a97c 583d 1b75 7f3b 24de 343d 6e1a 55bd
000002b0: 3b96 9a3d c732 f53c a876 c8bd 2716 bbbd
000002c0: 2170 14bd c39b a7bd d7b9 1ebd 5835 e5bd
000002d0: 5f69 f3bd 1d1b 7fbd 2645 d4bc 40f8 19bd
000002e0: 73c7 b5bd 22e6 163d f905 93bc 46bd 30bc
000002f0: 0d4f 8fbb 9439 6fbd 61c3 153d eeab 8939
00000300: 64ca 7f3d a967 0d3e 8eeb a7bb 4e81 b9bd
00000310: aefe 4c3e 7c41 a7bd b999 bfbd c4fe e7bd
00000320: f3b4 4bbd 9bae dd3d aa18 5d3d 3f47 873c
00000330: 0ebe ae3c 032d 0bbe fa4c f13d c9f6 7a3d
00000340: 4102 80bd 6310 b03c 3df5 003d 8844 aa3d
00000350: 5ee0 d03d 2a98 253d f201 8dbd 73f5 8dbc
00000360: 389d a3bd 79d4 b2bc 850e 62bd ebd1 353c
00000370: dbad db3d e725 49bd d6e9 e43d e1bf c0bd
00000380: b6f6 02be 1a89 0a3e 84e2 07be 4cf6 453b
00000390: 5e48 053e 9345 203d 1109 913d e358 c33d
000003a0: a1c6 ee3b 3b75 e8bd b24b 1fbe ee4f d33d
000003b0: 5468 06be cd8f e73c 763a a8bd 3d22 1d3e
000003c0: 14b2 553d f9ce b53d 650a a03d e3d5 dcbd
000003d0: e524 b9bd 45a4 81bc 8918 19be 5e63 903b
000003e0: 588b d2bd 8281 50bc 26a3 fc3d 8bd6 00be
000003f0: fff1 013e dfd0 d03d 3292 bcbd 1fac 2a3e

encoder.epic.epic.epic_layers.0.fc_global2.bias f4 [16]
-0.09895741 0.018844094 0.21908437 0.2359089 0.19815594 0.15737653 0.20973231 0.26191413
-0.08905324 0.23433849 -0.13846603 0.16375706 -0.24866016 -0.021213958 -0.14585277 0.28104994
00000000: 2faa cabd ee5e 9a3c a757 603e 1a92 713e
00000010: 64e9 4a3e 5027 213e 11c4 563e 9c19 863e
00000020: 8c61 b6bd 6ef6 6f3e 0aca 0dbe eeaf 273e
00000030: c5a0 7ebe e5c8 adbc 6e5a 15be c7e5 8f3e

encoder.epic.epic.epic_layers.0.fc_global2.weight_g f4 [16, 1]
0.6156882 0.6404182 0.48718047 0.6330482 0.6188923 0.53552526 0.6638066 0.592028
0.51922476 0.6215531 0.63809717 0.638894 0.5786835 0.60520303 0.560939 0.61195505
00000000: be9d 1d3f 72f2 233f b86f f93e 720f 223f
00000010: ba6f 1e3f 2f18 093f 3bef 293f 268f 173f
00000020: eaeb 043f 1b1e 1f3f 565a 233f 8f8e 233f
00000030: 9a24 143f 96ee 1a3f b399 0f3f 16a9 1c3f

encoder.epic.epic.epic_layers.0.fc_global2.weight_v f4 [16, 16]
-0.21364066 -0.054939125 0.14300314 -0.1468535 0.13626775 -0.13282488 -0.0040100473 -0.16727778
-0.06307065 -0.1077689 -0.034035824 0.11628933 -0.2022246 0.19074012 0.14660193 -0.23021802
0.2511217 0.09482002 -0.23544596 0.124033295 0.2233944 -0.19251654 -0.01849045 0.15321873
-0.06849679 0.21778338 0.2396312 -0.028864173 -0.14286283 0.23849565 0.065449566 0.09651746
-0.12256043 0.17726722 0.08223281 0.03138596 0.030324401 0.015087179 0.0800779 -0.014275708
-0.04710269 0.07741832 -0.18324356 0.089416675 0.2323183 0.10309655 -0.15253204 0.028345706
-0.091693066 0.06848978 -0.012638401 -0.063135676 0.16030696 -0.005484384 0.21209185 0.0005965051
-0.15840901 -0.1925819 0.12914494 -0.20806944 0.20660673 -0.21250601 0.053411074 -0.038692873
-0.21701092 -0.22327675 0.14626811 -0.18788584 -0.062580295 -0.19327743 -0.22384186 0.03679071
0.18095295 -0.123195834 0.018761668 0.20493452 0.063130215 0.13903336 0.04628764 0.17140394
0.023551295 0.043572746 -0.14063963 -0.19175962 -0.04626044 -0.17969401 0.13920587 -0.049604353
0.14447264 -0.097811796 -0.10160212 -0.08305089 0.062018402 0.08764672 0.22331972 0.17758155
0.0652033 -0.03819678 -0.21540377 -0.02062312 -0.0008496891 0.017849455 -0.18924175 0.05085662
-0.20497328 -0.017273936 -0.046045385 -0.21797703 0.1962782 0.11222105 0.12257321 0.13276216
-0.0828831 0.1144723 -0.2419574 -0.22684711 0.09673089 0.14855213 -0.030521218 0.10071791
-0.20147048 0.12890315 0.26002455 -0.037370183 -0.10599028 -0.18814024 0.14094041 0.16177517
-0.08557704 -0.09994454 0.04363084 -0.099383056 -0.1418193 -0.13779901 -0.068409316 0.049176946
0.22598417 -0.09687876 -0.115103655 -0.22833326 0.18899226 0.013587502 -0.03477747 0.04842109
0.0009288561 -0.04164647 -0.059154052 0.10850194 0.1024328 0.017152866 0.26417047 0.026871273
0.11735584 -0.047977276 -0.00058604014 0.0060641286 0.024503257 -0.00010190123 -0.13316007 0.14181806
0.09327685 -0.11591099 0.17436886 -0.17616557 0.022851206 -0.07362615 -0.14169233 -0.23353589
0.14304586 0.15610056 -0.037018374 0.23530953 0.024073519 -0.13925982 -0.2416076 -0.14551137
0.16802534 0.2215399 -0.23594257 0.19879727 -0.22248076 -0.24003571 0.09597331 -0.20816115
-0.040401295 0.18355283 0.02398769 0.12672871 -0.101298995 -0.06713977 0.218463 0.0772849
0.057724405 -0.11383363 0.033677746 -0.1250807 -0.13733858 -0.0069560143 -0.088060245 0.017702136
0.025415542 0.104821585 0.1216292 0.115989596 -0.17070425 -0.0272964 -0.27634484 0.119176365
-0.020707533 0.17019749 0.16181064 -0.118353955 -0.04013323 -0.067431845 0.100370415 0.11069537
-0.11521652 0.22024773 -0.23383659 -0.18192582 -0.08081505 -0.02050479 0.24016982 0.14199582
0.17682824 0.05904757 0.057548013 0.14072266 -0.0041379035 -0.04443514 -0.1919974 0.19090118
0.1035344 -0.14613035 -0.019682793 -0.20850658 -0.13220972 -0.21727371 -0.0560706 0.011648241
0.062144652 0.19247432 -0.17332205 -0.2443788 -0.13560018 -0.057581022 -0.123706736 -0.1980554
0.1654159 0.23468985 -0.18481596 0.20522991 0.07044054 0.2659222 -0.16117741 0.02051092
00000000: 9ec4 5abe d907 61bd 6a6f 123e c460 16be
00000010: c689 0b3e 3f03 08be b766 83bb de4a 2bbe
00000020: 2f2b 81bd f1b5 dcbd 2669 0bbd 1a29 ee3d
00000030: f713 4fbe 6151 433e d11e 163e 46be 6bbe
00000040: 0693 803e 0031 c23d bf18 71be 2b05 fe3d
00000050: 80c1 643e 0e23 45be 4979 97bc 5fe5 1c3e
00000060: 0c48 8cbd 9b02 5f3e e261 753e 8f74 ecbc
00000070: a24a 12be 3438 743e 6c0a 863d f2aa c53d
00000080: f600 fbbd 8a85 353e ad69 a83d 908e 003d
00000090: e16a f83c 3730 773c e2ff a33d a9e4 69bc
000000a0: c0ee 40bd 7f8d 9e3d 33a4 3bbe 1720 b73d
000000b0: d9e4 6d3e 4924 d33d 5c31 1cbe 4135 e83c
000000c0: 93c9 bbbd 5f44 8c3d 4c11 4fbc 474d 81bd
000000d0: 8227 243e 59b6 b3bb 9b2e 593e c85e 1c3a
000000e0: f935 22be 3134 45be 923e 043e 2810 55be
000000f0: b790 533e 2d9b 59be 92c5 5a3d 6b7c 1ebd
00000100: 1c38 5ebe a9a2 64be 4fc7 153e 2565 40be
00000110: 192a 80bd 85ea 45be cd36 65be dbb1 163d
00000120: bb4b 393e 194e fcbd 12b2 993c 5bda 513e
00000130: 6a4a 813d c35e 0e3e 1c98 3d3d 8484 2f3e
00000140: a5ee c03c 5679 323d d603 10be a25c 44be
00000150: 967b 3dbd b501 38be fc8b 0e3e ef2d 4bbd
00000160: a3f0 133e 8d51 c8bd c614 d0bd 9616 aabd
00000170: 0207 7e3d 2080 b33d edad 643e f0d7 353e
00000180: 4f89 853d 3a74 1cbd ce92 5cbe d1f1 a8bc
00000190: acbd 5eba 0539 923c 97c8 41be 084f 503d
000001a0: 84e4 51be 1282 8dbc 169a 3cbd 5f35 5fbe
000001b0: 27fd 483e 26d4 e53d aa07 fb3d cef2 073e
000001c0: 9dbe a9bd 7470 ea3d aec3 77be 9c4a 68be
000001d0: d81a c63d 0d1e 183e a207 fabc 3145 ce3d
000001e0: 474e 4ebe 30ff 033e f021 853e 7a11 19bd
000001f0: 6f11 d9bd d6a7 40be af52 103e 64a8 253e
00000200: 0443 afbd b9af ccbd 40b6 323d 5889 cbbd
00000210: 1439 11be 2f1b 0dbe 2f1a 8cbd c46d 493d
00000220: 6568 673e 5f68 c6bd 77bb ebbd 32d0 69be
00000230: 3087 413e 1d9e 5e3c d272 0ebd 3155 463d
00000240: 7a7e 733a 7d95 2abd 854b 72bd 4436 de3d
00000250: 4ac8 d13d 2b84 8c3c 5a41 873e 2521 dc3c
00000260: 4258 f03d d283 44bd 7da0 19ba 99b5 c63b
00000270: 0ebb c83c ceb3 d5b8 1d5b 08be c138 113e
00000280: ef07 bf3d be62 edbd c08d 323e bf64 34be
00000290: 7432 bb3c 4fc9 96bd cb17 11be 0824 6fbe
000002a0: 9d7a 123e d3d8 1f3e 94a0 17bd fbf4 703e
000002b0: d435 c53c 209a 0ebe fc67 77be ef00 15be
000002c0: d60e 2c3e 5bdb 623e ee9a 71be 8391 4b3e
000002d0: ffd1 63be eccb 75be a88d c43d 3228 55be
000002e0: d47b 25bd 46f5 3b3e d581 c43c 2cc5 013e
000002f0: d975 cfbd 9380 89bd c4b4 5f3e 8c47 9e3d
00000300: 6d70 6c3d 9b21 e9bd adf1 093d 2815 00be
00000310: 7ca2 0cbe 47ef e3bb ee58 b4bd 1204 913c
00000320: 4134 d03c b3ac d63d bb18 f93d f48b ed3d
00000330: 18cd 2ebe b39c dfbc 127d 8dbe bd12 f43d
00000340: d8a2 a9bc 4048 2e3e b0b1 253e 8f63 f2bd
00000350: be62 24bd b519 8abd 018f cd3d 41b4 e23d
00000360: a4f6 ebbd 9f88 613e dc72 6fbe c34a 3abe
00000370: 5c82 a5bd a9f9 a7bc 14ef 753e 5a67 113e
00000380: 7612 353e dddb 713d 77b7 6b3d 9a19 103e
00000390: 4097 87bb 9f01 36bd f79a 44be 997b 433e
000003a0: d809 d43d 32a3 15be cf3d a1bc c082 55be
000003b0: fc61 07be 007d 5ebe 49aa 65bd 44d8 3e3c
000003c0: 648b 7e3d fd17 453e 567b 31be 703e 7abe
000003d0: c6da 0abe 14da 6bbd f559 fdbd 09cf 4abe
000003e0: c962 293e 8952 703e 6540 3dbe ca27 523e
000003f0: 2143 903d f426 883e b10b 25be 8406 a83c

encoder.epic.epic.epic_layers.0.fc_local1.bias f4 [16]
0.12336355 -0.15995237 -0.026105875 0.061454155 -0.16179998 0.03145687 0.15384024 0.0626124
0.06172108 -0.10996495 0.038927875 0.014494677 0.107897416 0.08672034 -0.003228916 -0.003506013
00000000: 07a6 fc3d 8eca 23be fddb d5bc 5ab7 7b3d
00000010: e5ae 25be ebd8 003d 4c88 1d3e ee3a 803d
00000020: 3ecf 7c3d 4e35 e1bd d672 1f3d 157b 6d3c
00000030: 52f9 dc3d 6f9a b13d 399c 53bb 23c5 65bb

encoder.epic.epic.epic_layers.0.fc_local1.weight_g f4 [16, 1]
0.6009648 0.6179329 0.5335529 0.6281512 0.62434804 0.5639248 0.6489837 0.8682887
0.6296659 0.5627062 0.5193842 0.63816553 0.62765855 0.6292982 0.57755023 0.8163897
00000000: d4d8 193f da30 1e3f ec96 083f 84ce 203f
00000010: 46d5 1f3f 605d 103f cc23 263f 2b48 5e3f
00000020: c931 213f 830d 103f 5df6 043f d15e 233f
00000030: 3bae 203f b019 213f 55da 133f eafe 503f
