notebooks/multimodal_bridges/lightning_logs/version_0/checkpoints/epoch=199-step=200.ckpt (torch, 153984 bytes, 138 tensors)

encoder.epic.embedding.embedding_continuous.weight f4 [16, 3]
00000000: 0043 1c3f a7c9 9c3e acb2 23bf 7434 f6be
00000010: a780 4b3e cb6e 1a3f 8802 ddbd 3703 2ebe
00000020: f3bb f0be 7077 193f ed58 d13e 5382 5cbe
00000030: b44e 153f 6056 103f 77ec 9bbd 7872 14bf
00000040: 4e54 db3e 563f 9dbd 7365 d33e d5cd 18bc
00000050: 6d4f c4bd 2676 d5be 3d5b 0ebe 7270 0abf
00000060: b392 49bd cc80 37be 39c8 a9be 8839 0a3f
00000070: 117a 6a3e 4d04 ccbe b129 e2bd c424 8b3e
00000080: cefa 0bbe 1eb9 543d 015c 4cbe 07a4 d6be
00000090: f975 b9be b851 133f 96bd 713e 3b74 82be
000000a0: 9852 dcbe 5519 a3be d9ad 0ebf a36f 93be
000000b0: 6214 f2be 809a 063f 8d1e 6bbe df0e 9abe
0.61039734 0.306226 -0.63944507 -0.48086894 0.19873296 0.60325307 -0.107914984 -0.16993414
-0.47018394 0.5994787 0.40888157 -0.2153409 0.58323216 0.563818 -0.076134615 -0.57987165
0.42837757 -0.07678096 0.41288337 -0.009326418 -0.09585462 -0.41691703 -0.13901992 -0.5407783
-0.04921217 -0.17920226 -0.3316057 0.53994036 0.22898127 -0.3984703 -0.11043108 0.27176487
-0.13669893 0.051934354 -0.19956972 -0.41922018 -0.36222818 0.5754657 0.23607478 -0.25479302
-0.43031764 -0.31855264 -0.5573402 -0.2879611 -0.47281176 0.525795 -0.22960873 -0.3008947

encoder.epic.embedding.embedding_continuous.bias f4 [16]
00000000: f341 afbe a803 023f eaa8 87be bbd0 a63e
00000010: 268c a13d a479 043f eb9b fdbe c7f0 aa3d
00000020: 7863 a13e 2d97 013f b315 d03d 8fcc 0fbf
00000030: a0cf eb3e 2060 ba3e 1d7c 583c 01f2 b1be
-0.34230003 0.5078683 -0.2649606 0.32581124 0.07888059 0.5174811 -0.49533018 0.08346706
0.315212 0.506213 0.10160389 -0.56171507 0.46056843 0.36401463 0.013213185 -0.34754947

encoder.epic.embedding.embedding_discrete.weight f4 [8, 16]
00000000: 07e5 183f 3d7f de3d 8b68 09be fae6 c83b
00000010: 1dc5 49bf 8755 ccbe 8cc9 733e c5dd 2bbf
00000020: d8e9 6fbe 8dec 7ebf b46e 653e 0314 563f
00000030: 2e9f f33e 92c4 a73d 4bda 25c0 4b8d 91be
00000040: 4c4b f63e b627 883f 9083 9cbf cf3a 8cbf
00000050: 0a38 3fbf 29df dd3d 710a 353c a451 213f
00000060: 3339 2340 f917 e2bf 1e80 0840 ac8e 983f
00000070: 92da cebf 9b31 753f 46e0 47be d181 bb3e
00000080: 2224 d9bf f857 b3bf 01e7 b1bf eada 82bf
00000090: d448 89be f497 62bf d432 593e 76c8 0a3f
000000a0: cca8 c23e a6ad 85bf 21fc d13f b7bf ccbe
000000b0: 50c9 943f 3f11 6740 02ec 04bf a53d 1a3f
000000c0: fc62 26bd 587e ba3f 61fc 7abf 0b81 6940
000000d0: e2e1 033e 4943 1cbd fdff 88bd d45a a83f
000000e0: 4dc0 bfbf 93fa 02c0 f260 60be 1f02 d4bf
000000f0: a4f3 6f3e dbb0 13c0 8644 58bf 255f 6bbf
00000100: 82de 193e 0eed 803e 708f a73f 57e8 dabe
00000110: 5934 b13f 22cd 91bf 1813 6abf 213b eb3e
00000120: 244b 883f d06b 5bbf 1bba 31bf 7c8c cd3d
00000130: aa50 193f 672d 9c3d 4faf fc3c 84cb fcbe
00000140: 7307 11be 8419 ef3f 3008 e6bf 8913 333f
00000150: 870c b9be 2c1d b73f fa11 763f 307f e23e
00000160: 1cbd a13f bc5d bc3f 6c06 bb3e 930c 0840
00000170: 07fc abbd 56e9 893d 7924 90bf b5b4 8abf
00000180: 16ef 39bf b669 2fbf 8334 8cbe 5a80 ae3e
00000190: 5512 e83f 6d33 ebbe 4829 0bbf 183a f23f
000001a0: 6afe 6d3f 7225 ccbf 237f cc3d ebe9 803f
000001b0: 0689 643f c1e9 1c3f 206d e0bf 5c61 e2bd
000001c0: f4bf 483f d60a 19c0 3c20 8c3e 6987 0f3f
000001d0: 2cf7 97bf 6765 e33f 17e7 81bf 1be6 3d3f
000001e0: e323 d13e 63a7 e33e 0906 37bf 1482 1dbf
000001f0: 3201 78bf becf aa3f f617 9c3f ebf8 8dbf
0.5972447 0.108641125 -0.13418786 0.00613105 -0.78816396 -0.39909002 0.23807353 -0.6713527
-0.23429048 -0.995797 0.22405511 0.83624285 0.47582382 0.0819179 -2.5914485 -0.2842811
0.48104322 1.0637119 -1.222765 -1.0955447 -0.74694884 0.1083358 0.011049853 0.630152
2.5503662 -1.7663566 2.1328197 1.191854 -1.6160452 0.95778817 -0.19519147 0.3662248
-1.6964152 -1.4011221 -1.3898622 -1.0223057 -0.26813376 -0.8851311 0.21210796 0.5421213
0.38019407 -1.0443618 1.6405069 -0.39990017 1.1623936 3.6104276 -0.5192262 0.6025031
-0.040621743 1.4569807 -0.9804135 3.6485012 0.12879136 -0.038150106 -0.06689451 1.3152719
-1.498056 -2.0465438 -0.21911982 -1.6563147 0.23432785 -2.3076694 -0.8447956 -0.91942054
0.15026286 0.25180858 1.3090649 -0.42755386 1.38441 -1.1390727 -0.91435385 0.4594355
1.0647931 -0.85711384 -0.694246 0.10036561 0.5988871 0.07625847 0.030845312 -0.4937402
-0.14162998 1.8679662 -1.7971249 0.69951683 -0.3614237 1.4305778 0.9612118 0.4423766
1.2635837 1.4716105 0.36528337 2.1257675 -0.0839768 0.067339584 -1.126113 -1.0836397
-0.7263044 -0.6852068 -0.27383813 0.340823 1.8130594 -0.45937672 -0.54359865 1.8923979
0.9296633 -1.5948927 0.09985187 1.0071386 0.8927158 0.6129418 -1.7533302 -0.11053726
0.784179 -2.3912864 0.27368343 0.56065995 -1.1872306 1.776532 -1.0148648 0.7417924
0.40847692 0.44463643 -0.71493584 -0.6152661 -0.96876824 1.3344648 1.2194812 -1.1091589

encoder.epic.epic.epic_proj.local_0.bias f4 [16]
00000000: c5fb f8bd 1eac fd3d f686 2abe bcf9 0c3e
00000010: 287f 06be 442e 90bc 0abb 60bc 389d e63d
00000020: d2c6 203e c834 3d3d fb1d 34bd 9562 b43d
00000030: 8723 363e 0d3b 873c de7b e3bd 75e7 a63c
-0.12157396 0.123863444 -0.16653046 0.13767141 -0.13134444 -0.017600186 -0.013716469 0.11260456
0.15700844 0.046192914 -0.043973904 0.088078655 0.1778699 0.01650765 -0.1110761 0.02037404

encoder.epic.epic.epic_proj.local_0.weight_g f4 [16, 1]
00000000: b18c 153f f42e 293f 737f 043f 03e2 1e3f
00000010: 7e01 f43e b1f8 2e3f 51e2 0b3f a240 1a3f
00000020: 7f94 133f 4365 2b3f 09b1 1a3f d7f1 213f
00000030: 2f51 343f d967 283f 0b3b 253f fbf4 0b3f
0.58417803 0.6608727 0.5175697 0.62063617 0.47657388 0.6834822 0.54642206 0.6025487
0.5764846 0.6695139 0.60426384 0.63259643 0.70436376 0.6578346 0.6454322 0.54670686

encoder.epic.epic.epic_proj.local_0.weight_v f4 [16, 48]
00000000: c02e 903c 3ba9 bc3c f868 dc3c 0a00 07bb
00000010: 50ff acbd 811c b3bd ccba f9bd 05e6 823d
00000020: 75ec fbbc 7a22 61bc 3ffd cc3c 730d 87bc
00000030: a516 b23c 62f9 0abe 76ac e33d da6a e03d
00000040: bf56 90bd 6b63 493d 41d3 9d3d 0b73 bcbd
00000050: 4ca0 60bd 0087 a1bd 93ae 33bd 8d20 2dbe
00000060: 3ddf aa3b 1a1d c2bd d5b2 46be b668 7a3d
00000070: cb26 dfbc 8b53 b9bd 971e 413b 6e77 ce3c
00000080: 9aee 383c 8cbe 3ebc 7325 203e 69a6 a13c
00000090: c05d 853e 80b4 cb3d 07f9 843d 1ab1 a4bc
000000a0: 1239 cd3d 7ab4 debd e2d7 e3bc 10c6 993c
000000b0: f96c 113e 868c 713c 26f6 d8bd 4ed6 e33d
000000c0: ca3d 1d3c 4eaf 393d 55e4 ca3d ef6e d2bd
000000d0: e64a 023e 84b8 ba3c 09df ea3d 54a4 d0bd
000000e0: 9338 1fbd 4921 14bd 248a ba3d 4b4a a63d
000000f0: 4398 b83b 4523 49bb fd68 6bbc 9806 e6ba
00000100: 1783 fb3d 6115 88bd 2f93 af3d 3271 c0bc
00000110: c33b 903d 5fcb 473e 59b6 8a3b 0ae5 dc3d
00000120: 531a 54bd c6c5 11bd b528 363e 4abc 063d
00000130: 17b4 523e 9fac e7bd ad19 403d d902 a73b
00000140: d1e8 a6bd 91cc 99bb 88f1 08be 9e8b b43c
00000150: d28a 1dbd b7b9 e7bd 22d8 cd3c 6bb8 dd3c
00000160: 7bf5 f5bd 9c74 2d3d 79f5 9fbc d96b 1ebe
00000170: e79f 073e d519 843d 693e cbbc a54b f83d
00000180: cd5c 07be a40a 953d ab6c 83bc 10fa 093d
00000190: d3d8 1cbe 7a00 613d 2336 22be 09d4 c1bd
000001a0: aea6 4f3d 66b4 bcbb a75a 0c3e c453 ba3d
000001b0: 6c0f 5f3d c5bc 95bc cd3d 3f3d 6b4d 483d
000001c0: ff89 24bd 1858 cd3d 2ebf c03d 5aab 033e
000001d0: 3d32 783d 9291 033e eef0 053d aed5 8e3c
000001e0: 24e7 6b3d aa82 b43d 04c0 62bd 8ae2 753d
000001f0: 731a 8dbd 344a 71bc 8042 f93c ff27 d8bd
00000200: 26bb d1bd 7533 8f3d ed5a 9b3b 74e0 cabd
00000210: e3f1 f2b9 e182 54bd 907a 8c3d 1bc3 ff3b
00000220: a509 bdbb 6178 9ebd 0084 0ebe c75d 6b3d
00000230: fd93 a5bc 153c 7e3d 1768 b73d 0fc9 003e
00000240: 1acd c53d ccc2 4fbc 9947 84bd 5acd b33d
00000250: 62f0 e8bd 1386 2b3d 4a7a 82bd 27c9 bcbb
00000260: d114 bbbd 8a17 38bd 7bd7 24be 02a7 c3bd
00000270: 01d1 78bd b259 bcbd 4f18 b73d b158 3c3c
00000280: 3f73 1bbd cdda 053b b3ef d43d 6f7b b93c
00000290: 2356 babd 95ac 13be 2bac cf3d 6834 263e
000002a0: 24e8 2d3e 8a95 0e3e 1900 93bd b632 1d3e
000002b0: 305d c0bc d192 9e3d a405 7fbd 61e7 833d
000002c0: 4ea3 d7bc 67a6 d5bc e8f6 8dbc 9f8f 24bd
000002d0: dd24 ce3d 911a 563d 5272 8fbc ebd7 a73d
000002e0: 1cb3 813d a956 ee3d cbda e6bd 12b2 aa3d
000002f0: 50ba 13be 9d02 d93c 0afd 9cbd fdc1 b53d
00000300: 73b8 423d 6ee2 a73c df82 713c e568 f53c
00000310: 56bc c43d 4f0f 67bd a69f c4bc 314a 72bd
00000320: 35e7 c23d 236c 56bd 2617 0f3e ea9a b83d
00000330: 23d6 a9bd 4998 44bd c497 913d 0347 073e
00000340: 267a 9dbc b649 5ebd 54b8 fc3d e4f3 3d3d
00000350: fcf0 373c e3a5 823d 13b0 e2bd 49b6 8bbc
00000360: 4e6e dc3d 8e8a aeba 5922 f93d 0b7e 3abd
00000370: 655b bfbd 69a0 07bd da51 98bd 74a5 fbbc
00000380: 6bfa d8bc 4591 023d 09fd 193e 505a ba3c
00000390: 0869 b03d 716a 71bc afcb ee3d 0259 90bd
000003a0: 6c1e 2a3c d867 a83d fbfb 92bc de00 073d
000003b0: aef4 a0bc 921d f5bd 47d6 2c3e 94f2 c2bc
000003c0: 4094 72bd 42da 023e 29ad 01bd ed21 d33d
000003d0: 54af a4bd f9ba 26bd 4feb 863d f922 d03d
000003e0: 382d 0abb 5a8d 6d3d 1534 94bd 8edd b9bd
000003f0: 3764 83bd 3b88 6f3a 8ed1 78bd 88f4 863d
0.017600417 0.023029914 0.026905522 -0.0020599389 -0.084471345 -0.08745671 -0.12193832 0.06391529
-0.0307524 -0.01374113 0.0250231 -0.016485905 0.021739313 -0.13571694 0.11116879 0.1095788
-0.070477955 0.049167078 0.07706309 -0.0920163 -0.05484037 -0.07887077 -0.04386766 -0.16906948
0.0052146004 -0.09478207 -0.19404157 0.061135016 -0.027240178 -0.09049138 0.0029467696 0.025203433
0.011287356 -0.01164211 0.15639286 0.01973267 0.26048088 0.09946537 0.06492811 -0.02010398
0.10020651 -0.10874267 -0.027812902 0.018771201 0.14201726 0.014742976 -0.10593824 0.1112486
0.009597251 0.0453332 0.09906832 -0.10275065 0.12723884 0.022793062 0.11468322 -0.10187593
-0.038872313 -0.036164556 0.091083795 0.08119639 0.0056333854 -0.0030691188 -0.014368293 -0.0017549573
0.12280863 -0.06644703 0.08572995 -0.023491476 0.07042649 0.19511174 0.0042331633 0.10785873
-0.051782917 -0.035589002 0.17788966 0.03289441 0.20576511 -0.11312222 0.046899486 0.005096775
-0.08149875 -0.0046935757 -0.13373387 0.02203923 -0.038462467 -0.11314719 0.025127474 0.027065476
-0.12009712 0.042347535 -0.01952623 -0.15470828 0.13244592 0.064502396 -0.024810033 0.12123803
-0.13218994 0.0727742 -0.016043028 0.033685744 -0.15317087 0.054932095 -0.15840964 -0.094642706
0.050696068 -0.00575881 0.13706456 0.09098008 0.054458067 -0.018278489 0.046689797 0.048901957
-0.040170666 0.10026568 0.09411465 0.12858334 0.060594786 0.128485 0.03270047 0.017435875
0.05759348 0.08813985 -0.0553589 0.060030498 -0.068898104 -0.014727164 0.030427217 -0.10554504
-0.10240774 0.069922365 0.004741064 -0.09906092 -0.00046338057 -0.05188263 0.068593144 0.007805241
-0.005768972 -0.07737804 -0.13917542 0.05746248 -0.020212168 0.062069017 0.089554004 0.12576698
0.09658261 -0.012680721 -0.06458969 0.08779402 -0.113739744 0.04187591 -0.06370981 -0.005761284
-0.0913483 -0.044944324 -0.16097824 -0.095533386 -0.060746197 -0.091967955 0.08940183 0.011495755
-0.037951704 0.0020424605 0.103972815 0.022641866 -0.090984605 -0.14421304 0.1014026 0.16230929
0.16983086 0.13924232 -0.07177753 0.15351376 -0.023481935 0.07742847 -0.06226124 0.064406164
-0.026322987 -0.026080323 -0.017329648 -0.04017603 0.10065625 0.05227143 -0.017510567 0.0819548
0.063329905 0.11637623 -0.112722 0.083347455 -0.14426541 0.026490504 -0.07665451 0.08874891
0.047539186 0.020493712 0.014740675 0.029957244 0.09606235 -0.056411084 -0.024001908 -0.059152786
0.095167555 -0.05234922 0.13973674 0.090139225 -0.082927965 -0.047996793 0.07109025 0.13210683
-0.019223284 -0.054269515 0.12339845 0.04637517 0.011226889 0.06379297 -0.1106874 -0.017054694
0.107632264 -0.0013316439 0.121647544 -0.04553036 -0.09343604 -0.033111963 -0.07437487 -0.030718543
-0.026486596 0.03187682 0.15037932 0.022748142 0.08613783 -0.01473485 0.11659943 -0.07048227
0.01038323 0.082229316 -0.01794242 0.03295981 -0.019647922 -0.11968531 0.16878615 -0.02379731
-0.059223413 0.12778571 -0.03165928 0.10309205 -0.08041254 -0.040705655 0.0658785 0.101629205
-0.0021084081 0.05799613 -0.07236496 -0.09075461 -0.06415599 0.00091374264 -0.060746722 0.065896094

encoder.epic.epic.epic_proj.global_0.bias f4 [16]
00000000: 4264 48bd 9e1e 95bd 6b77 c53c 1031 f93d
00000010: 176b 9bbd d73f 013e 37b4 92bd 671a 5e3d
00000020: ce0c 853d 3da0 fbbc 60b2 0f3e 1550 433d
00000030: 4ccc 123e b58b 9abd 6a07 813b 6951 0f3e
-0.04892374 -0.072812304 0.024104794 0.12167561 -0.07588785 0.12622009 -0.071632795 0.054224398
0.06496583 -0.030716056 0.14032888 0.047683794 0.14335746 -0.07546178 0.0039376514 0.139959

encoder.epic.epic.epic_proj.global_0.weight_g f4 [16, 1]
00000000: 529d 113f cc2c 123f c41e f83e 0c48 de3e
00000010: bcd2 f83e c314 1c3f eb45 1e3f f4c0 143f
00000020: 52c0 123f 560c 3c3f e2c6 323f 64fa 193f
00000030: 8006 1c3f 3034 253f 2423 083f c159 243f
0.56880677 0.57099605 0.48460972 0.43414342 0.48598278 0.6096918 0.61825436 0.58106923
0.5732471 0.73456323 0.6983472 0.6014769 0.6094742 0.64532757 0.5317862 0.64199454

encoder.epic.epic.epic_proj.global_0.weight_v f4 [16, 48]
00000000: a95c 15be 0165 153e 4d7c 19be 7a2e 833d
00000010: e470 2cbd c68e 06be 9e72 80bd 199f 7d3d
00000020: bb8f 38bc 87fe f03c 8a19 1dbe be52 a93d
00000030: 6ec0 973d 8591 06bc a422 a53d 47ad ddbd
00000040: 56d7 bcbd 53b1 a0bd 922a 32bd b7a5 29bd
00000050: 4df1 893d ef2d 96bd 9007 193c 7db9 193e
00000060: 0fff 9cbd 940a ddbc 1dd0 093d c364 a038
00000070: e618 d03d 9060 0bbe a451 20bc 4d96 2c3d
00000080: f87d db3d 5b07 f33d e887 f23d b6bc de3d
00000090: 1848 efbd 63a5 263d 4501 a73d bd9f f03d
000000a0: fcad 0ebe 3673 21be 1311 303d 78e5 9dbd
000000b0: f4ee 1bbe 7007 2ebd 4506 dd3d 20ff 9d3d
000000c0: c959 173b 3af9 7c3d 7833 0bba 0f8c 813b
000000d0: bed7 013a b925 453c 5d7b 14bd 58c9 923a
000000e0: 424e eb3c 1dc8 233d a11b 6fbd 75eb 073d
000000f0: 5c47 a3bc dc84 88bd 6466 2fbd 1333 47bd
00000100: 863d 583c 99c6 d6bd 7de5 f1bd e7e4 2a3e
00000110: d573 b53d 3ad6 093e b92f 3d3d bac9 81bb
00000120: b30d cb3b 9beb 273d 4e0e 653e 7b5a b0bd
00000130: 3675 88bc 7008 6e3d c8f8 913d 5667 a03d
00000140: fe95 603d beb1 bcbc 213e e93d 4d4d a0bc
00000150: 0354 aa3d 93a1 bd3d 68bb 9f3d 3748 cf3d
00000160: a7a6 17bd a264 f1bc 578f bc3d a011 a1bb
00000170: da46 68bd d705 983c 523e c33d cc0e 1fbd
00000180: 717b c93d 0bc9 5ebc cb1f 353c 7f4c 9b3d
00000190: f327 113e f597 afbc 7a7b 813d e9d9 d0bd
000001a0: f5d1 c8bc 1dbe 96bc f384 1fbd c685 e63c
000001b0: 04da 94bd 652f 263d ca74 83bc c228 87bd
000001c0: 317b 3d3d 8860 bebd 984c 043c 73ea 97bd
000001d0: c7db be3d f52f 17be 6c2a c63d 8b9c 073e
000001e0: 07d4 26bc 3202 793c f6d7 1a3c 4ba2 babd
000001f0: fd00 21bd 3a9b 893c 1e0d a73d 8aa3 abbd
00000200: b2db 963a 66ff 7ebd 923d 333d 15e5 c53d
00000210: 042a febd 8dd1 4d3d 3ef3 b2bb 2a0a 0d3e
00000220: a497 ddbd b1e2 acb9 295b 803c 43bb e43d
00000230: 492e 66bd dfe4 78bd d80c 9b3c 1be4 d4bd
00000240: d9a9 5a3d c5aa 023e da8a 9dbd 3ae3 23bd
00000250: 1ee1 f33d 9f3f 85bd 7c70 1c3d 7093 83bd
00000260: 0a52 20be 0887 683c 0aa1 d7bd cda9 9d3d
00000270: 1989 d13d bc25 f4bd f97d 32bd 9e38 c53d
00000280: 3872 a53d 2e66 99bd b01e d33d 8f40 eebc
00000290: cde9 dbbb 93ed 043c 3aa7 c93d 5a1b b93b
000002a0: e610 bd3b d7d4 61bd c29b 0a3e 8eaf 21bd
000002b0: 42e6 5cbd 8218 d7bc 2d63 79bd 16bc b4bc
000002c0: 2840 28bb efb3 26bd 9de7 a8bd 87d5 a93d
000002d0: d2d1 c23d 5608 063e ae20 aabd 80cd 4dbc
000002e0: cb73 123d 637e aebd b18b 04be 17c5 653d
000002f0: c244 a3bd c709 e7bd 4795 7e3d d49c 95bd
00000300: 72c2 b4bd 5b67 2a3d 39f4 5cbd 9a53 3b3d
00000310: de04 123e 1628 9abd 141b b63c edbb 503d
00000320: 78d3 90bd 1c13 1fbc 796d 96bd e16c 173d
00000330: e60f c1bd e27c a03d 1cfe b53c 9352 a2bd
00000340: 0650 dcbd b182 1bbd d331 b23d c3e3 93bc
00000350: 7807 80bd 1952 a3bb dfb2 643d bcff 133d
00000360: 1c46 813c d2d9 11be d7bd c23d b8b1 a1bb
00000370: a66c bbbd ea75 ac3d 2a50 7fbd 716a 8e3c
00000380: 707b 2e3d ce6a ba3d 3b9e 70bd 4515 b93b
00000390: 8d46 093b 06f7 0dbe 5e61 02be e869 083e
000003a0: 2e9a 893d 9fc4 7e3c e4a4 8e3d 3b93 d23d
000003b0: 0cda a5bd f353 033e 9a0b 0cbd aaf5 aabc
000003c0: 6f0f d3bd 5b4a bbbd 0f2c 0dbe 7e1f 013e
000003d0: f7ba c5bd 9ac5 d5bd 28cf e53d 86ec 2cbd
000003e0: 3114 3ebd 9d7e 263e c9f5 2a3e 2f9b e6bd
000003f0: 1bf7 04bd acfd dd3c a6a6 4d3d 2210 413d
-0.14586128 0.14589311 -0.14988823 0.06405349 -0.04209985 -0.13140401 -0.062718615 0.061919305
-0.011264737 0.029418243 -0.15341774 0.08267735 0.0740975 -0.0082134055 0.08063248 -0.10824066
-0.092207596 -0.07846322 -0.04349763 -0.041417804 0.067354776 -0.0733298 0.009340182 0.15012164
-0.07665836 -0.026982583 0.033645738 7.648163e-05 0.10160999 -0.13611054 -0.00978509 0.042135525
0.10717386 0.11866637 0.11842328 0.108758375 -0.11683673 0.04068507 0.08154539 0.11749218
-0.13933557 -0.15766606 0.042985033 -0.07709783 -0.15227872 -0.04248756 0.107922114 0.07714677
0.0023094288 0.06176112 -0.00053100986 0.003953464 0.00049531076 0.01203292 -0.03625046 0.0011198921
0.02872384 0.039985765 -0.05837596 0.033183534 -0.019931488 -0.06665966 -0.042822257 -0.048632693
0.013198262 -0.10487098 -0.118113495 0.16688882 0.08859984 0.13460627 0.04618809 -0.0039608153
0.0061967014 0.040996175 0.22368738 -0.08611008 -0.016657453 0.058113515 0.071275294 0.0783221
0.054830544 -0.023033973 0.11388803 -0.01956811 0.08316805 0.092593335 0.07799417 0.10121196
-0.037024166 -0.02946693 0.092070274 -0.004915431 -0.056708194 0.018557472 0.09533371 -0.03883247
0.09837998 -0.013597737 0.011054943 0.0758295 0.14175396 -0.021434763 0.063223794 -0.10197813
-0.024514178 -0.0184012 -0.03894515 0.02813996 -0.07268146 0.040572543 -0.0160469 -0.06599571
0.046260063 -0.092957556 0.008074902 -0.074177645 0.09319263 -0.14764388 0.0967606 0.1324331
-0.010182387 0.015198277 0.009450903 -0.09112986 -0.039307583 0.01679765 0.08156799 -0.08380802
0.0011509566 -0.062255286 0.04375989 0.096628346 -0.124103576 0.05024867 -0.0054611256 0.13773409
-0.10819939 -0.00032975295 0.015668469 0.1116853 -0.056196485 -0.060765143 0.018927023 -0.1039507
0.053384636 0.12760456 -0.076924995 -0.040011622 0.11908172 -0.065062754 0.03819321 -0.06424606
-0.15656295 0.01419235 -0.10528763 0.076984026 0.102312274 -0.1192126 -0.043577168 0.096299395
0.08078426 -0.07490192 0.103085876 -0.029083518 -0.006711221 0.008113283 0.09846349 0.0056490125
0.0057698367 -0.05513462 0.1353598 -0.039474063 -0.05393053 -0.026256803 -0.060885597 -0.022062343
-0.0025673006 -0.04069894 -0.08247302 0.0829268 0.09512676 0.13089117 -0.083070144 -0.012561202
0.03575496 -0.085202 -0.12943913 0.056096163 -0.07972099 -0.11281162 0.06215408 -0.07305303
-0.0882615 0.041602474 -0.053943846 0.045734026 0.14259669 -0.07527177 0.022229709 0.05096047
-0.070715845 -0.009709146 -0.07345099 0.03696907 -0.094268605 0.078363195 0.022215895 -0.07925906
-0.10757451 -0.037966434 0.087009095 -0.018052941 -0.062514246 -0.004984152 0.055834647 0.03613256
0.015780501 -0.14243248 0.09508865 -0.004934516 -0.091515824 0.08420928 -0.06233231 0.01738474
0.042598188 0.091024026 -0.05874465 0.0056482875 0.0020946593 -0.13863763 -0.12732455 0.1332165
0.067188606 0.015549808 0.06965044 0.10281988 -0.0809823 0.12824993 -0.03419075 -0.020869095
-0.10305678 -0.091450416 -0.13786338 0.1260967 -0.09654801 -0.1043808 0.112211525 -0.042217754
-0.046405975 0.16259237 0.16695322 -0.11260068 -0.03246222 0.0270985 0.050207756 0.047134526

encoder.epic.epic.epic_proj.global_1.bias f4 [16]
00000000: 6ff9 5ebe 9855 9c3d 944b 5f3e b903 483e
00000010: af3b 7f3e 422c 4dbe b422 573d 19dd d7bd
00000020: 4fb8 bfbc 15f9 833e 2565 173e 6f90 0d3e
00000030: f471 2bbe 2a1a 903e 9e7b 4ebd 05db 523e
-0.21774839 0.07633513 0.21806175 0.1953267 0.24925111 -0.20036414 0.05252333 -0.10540218
-0.023403315 0.25775972 0.14784677 0.13824628 -0.16742688 0.28144962 -0.05041086 0.20591362

encoder.epic.epic.epic_proj.global_1.weight_g f4 [16, 1]
00000000: 6ac7 2a3f a67e 283f 7c79 053f 7fa1 333f
00000010: 737a 193f 00a4 1c3f 4f09 223f c31a 063f
00000020: 88a0 2a3f fee8 1e3f 3682 1b3f 9271 113f
00000030: 6d55 233f 3c9c 273f b563 0e3f 95c4 203f
0.6671053 0.6581825 0.52138495 0.701683 0.5995247 0.61187744 0.63295454 0.52384585
0.666512 0.6207427 0.6074556 0.5681392 0.63802224 0.6547277 0.5562089 0.6279996

encoder.epic.epic.epic_proj.global_1.weight_v f4 [16, 16]
00000000: 7217 63be a1ef 893e 4c39 213e 18eb 323c
00000010: 4aca c4bb 655a 93bd 3f97 e4bb 8ce6 4f3e
00000020: d8c8 f7bd cdd8 1d3b dc32 33be 8789 5dbe
00000030: f6f6 99bd 3274 f03c d02a 3f3e 60a6 8f3e
00000040: 5cc7 073b 9488 8d3c 319b e0bc d8ca a5bd
00000050: 982e 303c 2040 efbd 8c24 1b3e b46c 6abc
00000060: 8c1e 1d3e cbcb 923e 81c9 ef3d 7ea0 5b3e
00000070: 6ea2 593d a43b 1cbe 1cef 16be f5d8 06be
00000080: 2fe8 e1bd f4b3 da3d b7fd 49be 5403 333d
00000090: c86d 21be bb5b 52be cc91 dd3d 6b5b 2bbe
000000a0: 2f5f 543e 0582 5dbd b8ef a5bd 870d c53d
000000b0: f127 8fbd 1431 443e 3181 043d cdaf fa3d
000000c0: f289 eebd e348 8dbe c9e4 ddbc 16b2 0dbc
000000d0: 410e 9c3d f707 073e c1a5 1ebe a963 48be
000000e0: e9d0 83be 76d5 333e 14ff 4e3e 402e f4bd
000000f0: d27d 6abe eb55 3c3e aa3d 5ebd 40e7 133e
00000100: 4066 113b 7c9a 403e 609b cbbc a63e 553d
00000110: b80b e9bc e6f1 253e 7a3a 2b3e 89ea 293e
00000120: 8d9a 04bd b68b 0bbe 0cfc 30be f511 a63c
00000130: f243 d53c 8469 38be f019 a33d e046 473e
00000140: 004b 043e aa5b 253e a6a3 e33d d3ec 3e3e
00000150: 00da 1e3e e1b9 d03d 0af0 56be cf04 debd
00000160: 3686 073e 17c2 2cbe 8d6e 4f3d e13d 5ebe
00000170: 6359 c73c 2ac7 3e3e 1a80 903d 630b 4cbd
00000180: 3266 01be d90f 50be 7936 083c 2f40 1b3d
00000190: e48c 32be 89e5 8a3d 5e72 d7bd 1519 523e
000001a0: 28c0 36bd 974e a0bd e5fa 843c b844 10be
000001b0: 3972 1bbe 69b5 ecbc 40c9 863e 8dc4 babd
000001c0: e70e 5bbd b957 59be 5044 493c 1ceb 683b
000001d0: 6292 51be 18e9 5d3e 5f8d f93b 90de e53d
000001e0: fa4f ffbd 1ebc 46be 9315 7cbd 924b a13d
000001f0: 8f32 473e a546 913d 2083 033d 07aa 4abe
00000200: 2abc 5abe d7de 97bb 0e20 60bd 7403 633e
00000210: 2ae0 db3c f34e 3d3e 85c8 8bbc 6fb0 3cbe
00000220: e5a0 68be c744 08be 2767 253c 6e0d 613e
00000230: ded8 6bbe ccbf 343e 4185 a33d 1c44 0cbe
00000240: f99a d03d 7fe3 883e cf86 4bbe 9bc7 2ebc
00000250: 2d15 023e 76e3 173e 2b97 57be 51bd ae3d
00000260: 1163 063e 6b4d 7c3d 222e 67be 4b07 913d
00000270: efb2 813d 9fa0 623e 2a92 aabd cf24 283e
00000280: 66b5 48be f96e 673e 9e6f d63d a4fe 813c
00000290: 1ee5 9a3b f938 763e ae99 89b9 39ba bd3c
000002a0: c991 fcbd 8669 3d3d b0a6 733d 4370 8c3c
000002b0: a1c2 633e f05b 47be d30e 613d d1ab 733e
000002c0: 6c35 e73c 884a 893d 384f 7cbd d953 3b3d
000002d0: b882 35be ccd6 203e 2500 30be c884 0ebe
000002e0: 960e b0bd 4068 b7bd 28dc 493e f94a 063d
000002f0: 5ecb dcbd ae4a 283e 7ec6 79be 87b8 1ebe
00000300: 02c3 f03c 8777 d0bd 732c 04bb eeaa 203c
00000310: d83f 14be 10c3 35bd 0be9 b43d fdc9 14be
00000320: fd25 5dbc 3f1d 07bb 3dc5 7f3e 1326 483e
00000330: 5d2b 7a3e 2cdf 723e eef6 0cbe a6bd 183e
00000340: 71e7 b53d ceb4 a5bd 5a91 363c 23b6 a2bd
00000350: e2bd 073e 464c f63d db29 e3bd 3028 cfbc
00000360: 3212 e5bd 0980 823e e001 863e 34b1 443d
00000370: 172b 8e3e 6c47 3b3e 04ee 65bc 5b08 1abe
00000380: dae3 443e 5e50 b03d ebf7 693e 2645 6dbe
00000390: 5cc0 983c 26d2 20be 3861 b5bd e1f4 243d
000003a0: 68d5 5d3e 0a05 d2bc d3c0 28be ce37 9d3d
000003b0: 34ec 1eb9 6a1a fcbd 81c4 3fbb cc54 2f3e
000003c0: 0d18 963b e26d b5bd b4d7 613e 14cf 303d
000003d0: 7673 bc3d 4d35 c9bd 5872 183e e66c 37bd
000003e0: f9f4 6dbe 96a3 88bd 5054 343e a6bf ab3d
000003f0: a323 a63d bc30 893e a9e6 1dbe 8642 e83d
-0.22176912 0.26940635 0.15744513 0.0109203085 -0.00600556 -0.07194976 -0.0069760378 0.2030279
-0.12098855 0.0024085522 -0.1749987 -0.21634494 -0.07517807 0.029352281 0.18668675 0.28056622
0.0020718193 0.01727704 -0.027417751 -0.0809533 0.010753296 -0.11682153 0.1515066 -0.014308143
0.15343684 0.28671107 0.11708356 0.21447942 0.05313342 -0.15257126 -0.1473965 -0.131687
-0.11030614 0.106788546 -0.19725691 0.043704346 -0.15764534 -0.20542805 0.10818824 -0.16734092
0.20739435 -0.054079074 -0.08102363 0.09621721 -0.0699004 0.19159347 0.03234977 0.122405626
-0.11647405 -0.2759467 -0.027086632 -0.008648416 0.07619906 0.13186632 -0.15492918 -0.19569267
-0.25745323 0.17561898 0.20214492 -0.11922884 -0.22899559 0.1839215 -0.054258026 0.14443684
0.002218619 0.18808931 -0.024854362 0.0520617 -0.02844797 0.16205558 0.16721526 0.16593374
-0.032373954 -0.13627514 -0.17283648 0.020272234 0.026033375 -0.18009001 0.079639316 0.1946063
0.12919235 0.16148248 0.11115198 0.18645029 0.15512848 0.101917036 -0.20990005 -0.10840761
0.13234791 -0.16870914 0.05064254 -0.21703292 0.024334615 0.18630663 0.070556834 -0.049815547
-0.1263664 -0.20318545 0.008313769 0.037903007 -0.17436558 0.067820616 -0.10519861 0.2051738
-0.04461685 -0.0782749 0.016232917 -0.14088714 -0.15180291 -0.028895097 0.26325417 -0.0911952
-0.05348101 -0.2122487 0.012284353 0.0035540527 -0.20465997 0.2167095 0.0076157297 0.11224091
-0.12466426 -0.19407699 -0.061544012 0.07875742 0.1945288 0.070935525 0.032107472 -0.19791423
-0.21360841 -0.004634719 -0.05471807 0.22169286 0.026840288 0.18487148 -0.017063389 -0.18426679
-0.22717626 -0.13307486 0.010095394 0.2197778 -0.23031947 0.1765129 0.079844005 -0.13697857
0.10185809 0.26736066 -0.19875644 -0.010667707 0.1270339 0.14832863 -0.2105376 0.08532203
0.13123728 0.06159727 -0.22576192 0.07081469 0.06332957 0.22131585 -0.0832866 0.16420291
-0.19600448 0.22600926 0.10470508 0.015868492 0.00472702 0.24045171 -0.00026245177 0.023160087
-0.12332494 0.046243213 0.059485137 0.017143374 0.22242214 -0.19468665 0.054945778 0.23796012
0.028223716 0.06703669 -0.061598986 0.04573426 -0.17725646 0.15706939 -0.17187555 -0.1391784
-0.08596532 -0.08955431 0.19712889 0.032786343 -0.10780977 0.16434738 -0.24392125 -0.15500079
0.029389862 -0.10179048 -0.0020168095 0.009806378 -0.1447748 -0.04437548 0.08833512 -0.14530177
-0.013497827 -0.0020616797 0.24977584 0.19545774 0.24430604 0.23717946 -0.13766071 0.14916095
0.088820346 -0.080911264 0.011143053 -0.07944896 0.13256028 0.12026267 -0.11091968 -0.025287718
-0.11185111 0.25488308 0.26173306 0.048020557 0.2776725 0.18288964 -0.014033798 -0.1504225
0.19227543 0.08609079 0.2284848 -0.2317091 0.018646412 -0.15705165 -0.08856434 0.040272597
0.2166344 -0.025637168 -0.16479807 0.076766595 -0.00015156047 -0.123097256 -0.0029261413 0.17122191
0.004580504 -0.08858849 0.2205494 0.043166235 0.0920171 -0.098246194 0.14887369 -0.044781588
-0.23237981 -0.066718265 0.17610288 0.083861634 0.08112266 0.26794994 -0.15420021 0.11340813

encoder.epic.epic.epic_proj.global_2.bias f4 [16]
00000000: 6bb7 003e 1e73 dd3d 6401 3cbe 7888 223d
00000010: b1a7 1fbe 2150 ffbc 1669 853d c3ce 243d
00000020: 5788 a03d 1a84 8bbe cfa7 0a3e d187 503e
00000030: 349e ec3c 29e1 34be da52 0c3e 0152 1cbc
0.12569968 0.108129725 -0.18359905 0.039680928 -0.15591313 -0.031166138 0.06514184 0.040236246
0.07838505 -0.27249223 0.13540576 0.2036431 0.02888403 -0.17664017 0.1370348 -0.009541036

encoder.epic.epic.epic_proj.global_2.weight_g f4 [16, 1]
00000000: e83c e23e e1cc 2c3f 2287 123f 0070 213f
00000010: dee1 303f aba0 143f 854e 0f3f 8e1a 0a3f
00000020: fe05 0a3f ebd6 293f 19d7 173f fc66 153f
00000030: 96bc 013f 2480 0d3f c34a 293f 485b 083f
0.44187093 0.6750012 0.57237446 0.63061523 0.69094646 0.5805766 0.55979186 0.5394677
0.53915393 0.66343564 0.5931259 0.58360267 0.50678384 0.5527365 0.661297 0.53264284

encoder.epic.epic.epic_proj.global_2.weight_v f4 [16, 16]
00000000: dbcc 793e 7274 b6bc cb35 123e edf2 81bd
00000010: b45d 4d3e 514f cf3d dbcc a53d b9c4 34be
00000020: aecf bd3d ea8d cd3c eae5 8abd ead9 fdbc
00000030: fe97 d93b 7efc 243c d674 eabd 43db 0cbe
00000040: 76b3 833e 3534 4fbd 1c07 3e3e 720f 7a3e
00000050: 08ef 0e3e cc35 74be ddc6 bcbc c272 21be
00000060: 898a 38bc 8b78 173e cf1b 80be 8163 febd
00000070: 4ae2 503d f017 7bbe 7fc3 5c3e 30fe bcbb
00000080: de7f 6f3e 6a16 43bd e159 5cbd d0cb c9bd
00000090: f43d 8dbc 9be1 49be 9061 5dbe cd7a 1d3e
000000a0: d642 083e 06db e93d d06d 323d bc08 d0bd
000000b0: a334 c73d 6c49 713e aaa3 27be 9e10 c2bc
000000c0: 0099 063e ab8a 143e b367 b63c f48a 1bbe
000000d0: 9cef e93c b7ac 26be a52a 98bd d930 3a3e
000000e0: 4e59 05be f4e7 eebc edab 61be 6817 0dbd
000000f0: 4004 75be 7f8c 8cbe 91f8 6ebd 3fb4 8f3d
00000100: f579 673e 2025 493c 404d a1ba d129 0bbe
00000110: a230 413e d0f0 193e d452 bd3a 83ed e439
00000120: 8eda bdbd d647 3a3b 0ace 413e 36bd 393d
00000130: 2df5 7abe 9fe1 31be 34c9 053d 69af 2ebe
00000140: bad1 59be b2b2 593e 0810 5b3c 1527 5cbe
00000150: 6d98 343e 1b2e 9ebb 5408 30bb 1fb4 c43d
00000160: c0bc 253e b8da 85bd 8ab8 433d aba1 3d3c
00000170: e67c 9d3d aa64 9c3e a807 303e 4fda e73c
00000180: 6e3e a63d 2dfb 44be ac2b 213e 3b36 3dbe
00000190: 71e7 b9bd 926c 473e 09f1 153c b876 4f3e
000001a0: 2727 fcbd 5275 56bd 9328 0c3e 75bc 04bd
000001b0: cdac 6a3c 6d27 90bd 17ff e83d 919d 00be
000001c0: 4e1e 22be f424 6d3e 50ee 6e3e 0362 47bd
000001d0: 08c9 943d 9021 563d 44a6 623d 2a74 f3bb
000001e0: 341a 1abd 9b19 9abd cac7 963d 7390 82bd
000001f0: 7fcd d139 c892 4a3e 435c 8c3d 7fb3 2e3e
00000200: b95c 1dbe aa4f 613e db33 4b3b d5aa 033e
00000210: a253 523e 6ebe a7bc 9999 753d f945 a8bc
00000220: 66d0 5b3e 7b92 193e 5301 3b3d 2b74 02be
00000230: 28a2 d13d eb7f 9fbc e94a 243e 0674 c3bd
00000240: 86b3 1ebd 104b 043e 8183 f33d 5bd1 d1bd
00000250: 181b 2cbe ba2b 043e ee25 22be 5fa6 83be
00000260: 6cee 90be af0d 34be 6049 82be a0d6 6abd
00000270: 76ea 32be eb51 4a3e 8e94 e43d 26b1 2bbe
00000280: 7c6d 18bd 7c50 6abd 8552 5a3e 2727 75be
00000290: 55db f83d 01ae df3d f306 5f3e 4f74 6a3e
000002a0: fa02 0a3d 3c72 3d3e b0f0 57be 377e 4b3e
000002b0: edfe edbd a260 37bc fbd2 66bd db38 ddbd
000002c0: 3c27 473e 7ee7 84bd 6f0d 3bbd c3c9 213e
000002d0: 464a 14bd b8f7 013d 5707 0cbc 7414 60be
000002e0: 2467 193e 9f37 06bd 98b5 a93c ec24 16be
000002f0: 51ff 3abd d79b 56be f612 143e ee55 603d
00000300: 62dd 9dbd c327 4b3e 7eef 9fbd 7252 fcbd
00000310: 3dae c6bd e33b 373e a71e 31be f4e7 823e
00000320: da3d 113e 5283 e83d 5b73 323b d9ad 503d
00000330: 00ee 29be d721 cabb 1130 35bd 3017 57bd
00000340: b1e2 fb3d 167e 08be 9be0 493d 8913 8abc
00000350: 30de b2bd c221 49be f929 283c 6540 a8b6
00000360: 3f5a af3c 628c 62be 61fa f4bd 3d67 0e3b
00000370: 8d52 46bd eba3 e33d 6b1d 70be b703 49bd
00000380: 8ecc 833e fc6c 8abe 713d dc3c 7d77 413e
00000390: 99c1 24bc c9e3 02be 73e4 7a3e b743 a53c
000003a0: dd54 2ebe 60d9 413d 3d5f 1bbe dcb8 153e
000003b0: b433 1cbd 9f1d 783e ccb0 5a3e 8a8d 213e
000003c0: b87e ea3d 8939 efbd bad3 113d 657e 6fbd
000003d0: 50bd 0d3e cd54 65bd 4c28 18ba b857 313a
000003e0: f5d6 8d39 9bae 0c3e 9c81 adbc fdd9 babd
000003f0: 1d82 973e b26a 83ba 31c7 aebd 9dc1 223e
0.24394552 -0.022272322 0.14278333 -0.063451625 0.20055276 0.1012255 0.08095714 -0.17653169
0.092681274 0.025092084 -0.06782134 -0.030987699 0.0066404333 0.010069964 -0.11448066 -0.13755517
0.25722855 -0.050586898 0.185574 0.24419954 0.1395837 -0.23848647 -0.023044044 -0.15766433
-0.011263498 0.14792077 -0.25021216 -0.124213226 0.050997056 -0.2452085 0.21558951 -0.005767606
0.23388621 -0.047628798 -0.053796653 -0.09853327 -0.017241456 -0.19714968 -0.21619248 0.15378876
0.13306746 0.114187285 0.043561757 -0.10157916 0.097268365 0.23563164 -0.16371027 -0.023689564
0.13144302 0.14506023 0.022266245 -0.15189725 0.028556637 -0.16276823 -0.07430009 0.18182696
-0.13022348 -0.029163338 -0.2203824 -0.03444615 -0.23927402 -0.2745094 -0.05834252 0.07016801
0.22605117 0.012276918 -0.0012306347 -0.1359017 0.18866208 0.15033269 0.001444424 0.0004366451
-0.092702016 0.0028424165 0.18926254 0.04534646 -0.2450759 -0.17371224 0.032662585 -0.17059101
-0.2127141 0.21259573 0.013370521 -0.21499284 0.17636271 -0.0048272735 -0.0026860433 0.09604668
0.16185284 -0.06535858 0.047783412 0.011574189 0.07689838 0.3054555 0.1719042 0.02830234
0.08117376 -0.19236441 0.15739316 -0.18477719 -0.09077347 0.1947501 0.009151706 0.20260131
-0.12312155 -0.05235798 0.13687353 -0.03240629 0.0143234255 -0.0703877 0.113767795 -0.12560107
-0.15831873 0.23158628 0.23333097 -0.048677456 0.07264906 0.0522781 0.055334345 -0.0074296193
-0.037622645 -0.07524415 0.073623255 -0.06375208 0.00040016693 0.19782555 0.06853535 0.1706066
-0.15367402 0.22003046 0.003100625 0.12858136 0.20539716 -0.020476546 0.059960935 -0.020541178
0.21466216 0.14997284 0.04565556 -0.12739627 0.10236007 -0.019470176 0.16044201 -0.09543614
-0.038745426 0.12919259 0.11890317 -0.102450095 -0.1680721 0.12907305 -0.15834782 -0.2571287
-0.283069 -0.17583345 -0.25446606 -0.05733359 -0.17472252 0.19757812 0.11161147 -0.16766796
-0.037213787 -0.057205662 0.21320541 -0.23940717 0.12151209 0.109218605 0.21779995 0.2289593
0.033694245 0.18500608 -0.21087909 0.19872366 -0.11620889 -0.011192473 -0.05635355 -0.1080186
0.1944856 -0.06489466 -0.04566711 0.15799622 -0.036203645 0.031730384 -0.008546672 -0.21882802
0.14980751 -0.03276789 0.020716473 -0.14662522 -0.045653645 -0.20957886 0.14460358 0.05476945
-0.07708241 0.19839387 -0.078093514 -0.12320413 -0.09701202 0.17893939 -0.17296849 0.2556759
0.14183751 0.11353172 0.0027229402 0.050947044 -0.16594696 -0.006168585 -0.044235293 -0.052512348
0.12299097 -0.13329348 0.049286466 -0.016855018 -0.08733785 -0.19641784 0.010263913 -5.0142867e-06
0.021405337 -0.22123864 -0.119618185 0.0021729015 -0.04841857 0.11115249 -0.23448722 -0.04907581
0.25742 -0.27036273 0.026884766 0.18893237 -0.010055923 -0.12782206 0.24501209 0.02017389
-0.1702456 0.047326446 -0.1517305 0.146213 -0.038135245 0.2423005 0.21356505 0.15776649
0.11449951 -0.11680896 0.03560231 -0.05847015 0.13841748 -0.055989075 -0.00058043445 0.0006765085
0.0002705377 0.13738482 -0.021179967 -0.09123609 0.29591456 -0.0010026305 -0.085340865 0.1589417

encoder.epic.epic.epic_layers.0.fc_global1.bias f4 [16]
00000000: 89d7 123c a85a b43d 4b55 cdbd a91a a0bd
00000010: 52ad 27bd aa91 5ebd 0b9f ddbc 6608 68bd
00000020: 405f 90bd a9f7 a33c ba8e 6f3d ce52 bfbc
00000030: dd0d 74bd 7127 5c3d 8d98 0a3c 79dd dabd
0.00896252 0.08806354 -0.10026034 -0.07817585 -0.040936776 -0.054338135 -0.027053377 -0.056648634
-0.070494175 0.020015555 0.058485724 -0.023354914 -0.059583534 0.05374855 0.0084592225 -0.10686774

encoder.epic.epic.epic_layers.0.fc_global1.weight_g f4 [16, 1]
00000000: 6ca5 073f c6aa 0c3f 7728 0e3f f8ed 1c3f
00000010: 3eff 1f3f 1974 143f 27d8 233f 5704 0a3f
00000020: c627 0a3f b4d6 073f 5f13 0b3f 25b7 133f
00000030: 58e9 233f 8970 073f 280d 083f c489 1b3f
0.5298679 0.5494808 0.55530494 0.6130061 0.62498844 0.5798965 0.640017 0.5391287
0.5396694 0.53061986 0.5432643 0.5770133 0.6402793 0.5290609 0.53145075 0.6075709

encoder.epic.epic.epic_layers.0.fc_global1.weight_v f4 [16, 64]
00000000: 207f 253d 65f8 9cbd b3da d53c caf3 ab3d
00000010: e0a8 d73d 8a25 febd 7846 7c3d 8ef1 f9bd
00000020: 763c 86bd 24d1 913d bef7 773c d5e2 bcbd
00000030: 64b8 60bd 094a a2bb e128 0bbe 9875 e43c
00000040: e8e1 e83d c094 22be 7e7c 593d 8f9b 15bd
00000050: 3a92 ef3c 8548 67bc d3f6 56bd 2bd4 cdbd
00000060: 70e6 a1bd 78f5 1cbb 3f1d 0a3c 1091 f6bd
00000070: c10e cebd 3190 813d bee9 a3bc 5035 643d
00000080: 41d0 31bd 2305 babd 3b91 d83d a747 56bd
00000090: d4da 0c3e 402f 923d 393e d23d 6095 c7ba
000000a0: 8eff e6bc a101 5f3d 3841 743d 3064 e0bd
000000b0: c7ab f4bd 8a5f b33d 09a8 c1bd cc44 e6bd
000000c0: 20e6 84bd 2271 80bd d360 9cbd ad1e 2ebd
000000d0: 585d 3ebc 972f 00be e1dd cb3d ea9b da3c
000000e0: 6c08 ddbc dab1 a2bd f418 e0bc e2f6 a0bd
000000f0: 0bd4 113d 93c0 f13d afa9 2bbd b22e 53bd
00000100: a967 62bd 49ae f6bc 3e90 92bd 80d2 f439
00000110: f433 f33d e1c4 083e 3a53 8c3d 393a e9bd
00000120: 2c8b 75bd d874 7d3d 947e 0e3e eb17 7cbd
00000130: 18a1 a4bd 5a8d bdbd d767 873d ffce 1abd
00000140: a7e0 f43c b57c 353d 5f1a 7a3d 4cd9 07bd
00000150: 7f83 56bd fa61 6abd d6fd 9dbd 668c b8ba
00000160: f16e 933d 48ae 883d 797b 893c c035 5dbd
00000170: 8c7d 0f3c 3cbf 93bd 6c7f acbd 4a1b 65bd
00000180: f6ca d23d 5e8a bc3d 371c cebd 15dc 103d
00000190: ff9c 143b 8291 6a3d 6719 0cbe b37c 9abd
000001a0: fcc4 c7bd b5bc 5ebd 3561 5c3d 6aca fdbd
000001b0: 23fe f63d b39c 37bd b6f9 6cbd c7ed c8bd
000001c0: 7a4d 213d a962 0cbe f659 75bc e04a 03be
000001d0: 259d 2d3d aa0e 03be 42ee a33d 3a05 11be
000001e0: e5fe b8bd 09b4 3b3d ef10 5a3d 3dcc 74bd
000001f0: f640 e8bd 5b7f eabd a735 033d 740e dd3d
00000200: 6531 b83d 45ea 86bd 8729 70bd 3c5b a23d
00000210: 0fcb 8d3d 800a 20bd 9722 8d3c 2594 bb3d
00000220: 5563 c63d e42e e3bd aefd 8ebd bf96 90bd
00000230: 27f2 9a3d 0a62 59bd 27db c5bd a762 c43d
00000240: 158f 8e3d 7979 593d 0ffd a0bd 29d7 86bd
00000250: f6fd 6d3d 31de 493d f5cb 95bd 5799 e8bd
00000260: ac5e a0bd bbe0 473d 5739 8abd da97 a1bd
00000270: 1d8f 48bd fc4e 7c3d f6a5 883d fc31 323d
00000280: 4cc1 d5bd 81a3 ba3d 487d 07be 4046 a73c
00000290: f72f 0b3d 30d4 173d f053 b6bd ad79 67bd
000002a0: 1ed8 a13d f53d 06be b779 11bd 73ed 88bd
000002b0: 701e 46bd 4dc0 b33d d57f ac3c d05e f23d
000002c0: dbac bf3d d59f f6bd e773 343c 1a03 98ba
000002d0: a13c 56bc da41 5abd 66de 8d3d 0341 b2ba
000002e0: 1cd9 9dbd 55b4 e83d e52e cabd 6e93 3ebd
000002f0: d61e bd3d 3d31 853d c1f7 013e 2eca ef3d
00000300: 05c7 4f3a b4d5 9fbc 25c8 a0bd b3df 83bd
00000310: cfb0 9dbd b2dc 0fbd 432e aabc 66bf d039
00000320: 049f ce3c 4f00 03bb e914 013d 37c4 75bd
00000330: ae2a 6bbc a980 8b3c 1265 febc 550b 99bd
00000340: 994a 3a3d b37c 8c3c e56c 99bd c868 f43d
00000350: 3688 5e3c 95c7 04be b612 ee3d 2845 e83c
00000360: c33c 7d3d 5ef5 cc3d d7fc ef3d ef8d d53d
00000370: 5a91 733d 8890 d7bb 110c ac3d 873a 9fbd
00000380: e82a c83d 234c 19bd a184 bbbc e4f9 953d
00000390: b63d 7dbd 7708 b8bd 3a72 c03d 67cd dcbd
000003a0: 8a18 cfba bf38 67bd e316 903d 84c3 853d
000003b0: 9861 10bb 412a b3b9 2fcb 00bd 1607 37bd
000003c0: 009f 923d 9193 c43b f145 da3b 18c4 5cbb
000003d0: a7b9 313a fe1a b8bc 66b0 43bd 4edb c53c
000003e0: d29e b9bd cee5 5f3d b957 07bd 6cbd 17bd
000003f0: 19a0 63bd f4ab c1b6 546d c238 84c2 223d
0.04040444 -0.07664565 0.02610526 0.083961084 0.10530257 -0.12409504 0.06159064 -0.12204276
-0.06554501 0.071199685 0.01513475 -0.09222952 -0.05486335 -0.0049526733 -0.13589813 0.027888104
0.11371213 -0.15877056 0.05309724 -0.036525305 0.029244531 -0.014116411 -0.052481484 -0.100502335
-0.079052806 -0.0023950022 0.008429824 -0.12039387 -0.10061408 0.063263305 -0.020008918 0.055714905
-0.043411497 -0.09083011 0.105745755 -0.052314427 0.13755351 0.071379185 0.10265774 -0.0015227012
-0.02819803 0.054444913 0.05963251 -0.10956609 -0.119468264 0.08758457 -0.09455878 -0.11243591
-0.06489205 -0.06271578 -0.07635655 -0.042509723 -0.011618935 -0.12518154 0.099544294 0.026685674
-0.026981555 -0.07944079 -0.027355649 -0.07859589 0.03560261 0.11804309 -0.04190987 -0.051558204
-0.05527464 -0.030112403 -0.07156418 0.0004669614 0.11875144 0.13356353 0.06851812 -0.11388058
-0.059947178 0.06187901 0.13915473 -0.061546247 -0.08038539 -0.09255476 0.06611603 -0.037795063
0.029892279 0.044308383 0.061060306 -0.033166215 -0.0523715 -0.057222344 -0.07714431 -0.0014079928
0.07198895 0.066738665 0.01678251 -0.054006338 0.00875796 -0.072142094 -0.08422741 -0.055934228
0.10292618 0.09206079 -0.10063975 0.035366137 0.0022676585 0.057267673 -0.13681565 -0.07543316
-0.09754369 -0.054379184 0.05380364 -0.12392123 0.120601915 -0.044827174 -0.05785533 -0.098109774
0.039380528 -0.13709511 -0.014975062 -0.12821531 0.042386193 -0.12798563 0.080044284 -0.1416215
-0.09032992 0.04582599 0.053238805 -0.05976509 -0.11340515 -0.114500724 0.03203359 0.10793772
0.08993796 -0.06587652 -0.058633354 0.07927558 0.06923496 -0.039072514 0.017228408 0.09159116
0.09686915 -0.11092928 -0.06981979 -0.070600025 0.07565718 -0.053072013 -0.096609406 0.09589129
0.069608845 0.05309436 -0.07860767 -0.06584007 0.058103524 0.049284164 -0.07314292 -0.11357372
-0.07830557 0.048798304 -0.06749218 -0.078902915 -0.04896461 0.061598763 0.066722795 0.0435047
-0.10437259 0.09113217 -0.13231385 0.02041924 0.03398129 0.037067592 -0.089027286 -0.056512523
0.07902549 -0.13109572 -0.035516467 -0.06685915 -0.04836887 0.08776913 0.021057049 0.1183449
0.093591414 -0.12042204 0.011013961 -0.0011597604 -0.0130759785 -0.053285457 0.06927185 -0.0013599697
-0.07707426 0.113625206 -0.09872226 -0.04652732 0.09234397 0.06503532 0.12692167 0.117084846
0.00079260796 -0.019511081 -0.078506745 -0.064391516 -0.07699739 -0.03512258 -0.020774012 0.00039815455
0.025222309 -0.0019989198 0.031514082 -0.06000158 -0.014353437 0.017029123 -0.031054053 -0.074728645
0.045481298 0.017149305 -0.07491473 0.11934048 0.01358228 -0.1296676 0.116246626 0.028353289
0.061825525 0.100077376 0.11718147 0.10427462 0.05946479 -0.0065785088 0.08400739 -0.07774835
0.09773809 -0.037426125 -0.02289039 0.073230535 -0.06182643 -0.089859895 0.09396787 -0.10781365
-0.001580016 -0.0564506 0.07035615 0.06531432 -0.0022030827 -0.00034173022 -0.03144377 -0.044684492
0.07159233 0.0059990366 0.0066611697 -0.0033686217 0.00067796785 -0.022473808 -0.04777565 0.024152424
-0.09063496 0.05466252 -0.033042643 -0.03704588 -0.055572603 -5.771866e-06 9.271005e-05 0.039736286

encoder.epic.epic.epic_layers.0.fc_global2.bias f4 [16]
00000000: c78e 37be b507 963d 2c1a 41be b756 80be
00000010: f432 883d 07e6 a8bd a82a a0bd 4775 073e
00000020: 00d7 9c3c b1b5 89bc 6806 9d3d 65d6 68be
00000030: 99ff 613e b753 b03d e42b 053d d892 703e
-0.17925559 0.07325689 -0.1885764 -0.25066158 0.066503435 -0.08246999 -0.07820636 0.13228332
0.019145489 -0.01681027 0.076672375 -0.22738035 0.22070159 0.08609717 0.03251256 0.23493516

encoder.epic.epic.epic_layers.0.fc_global2.weight_g f4 [16, 1]
00000000: 5669 263f d5b0 273f 53af 0b3f a4ee fd3e
00000010: 6e58 253f 3b30 153f ef70 c23e 4cf2 263f
00000020: d798 173f ab96 cb3e 495d 1c3f 8e04 053f
00000030: cdde 183f 6ca8 023f 921e 1b3f d43c 063f
0.6500448 0.655042 0.545644 0.4959613 0.6458806 0.5827672 0.37976786 0.65213466
0.5921759 0.39763388 0.6107984 0.51960075 0.59714967 0.5103824 0.6059352 0.52436566

encoder.epic.epic.epic_layers.0.fc_global2.weight_v f4 [16, 16]
00000000: 8707 643e 91f0 203e c1a4 e9bb c139 283e
00000010: ed8f 773d 2c68 6c3e f17c 5fbe 4a14 843e
00000020: fdd3 04bd 140e 373e 6042 453e 0b44 b23d
00000030: 00cb 2cbe db9f d03d 1a0e 9dbd 5120 2a3e
00000040: 32ce 533d 16aa 573e 0601 e3bc 9fe6 553e
00000050: a789 5e3e 67d9 293e b620 553d 7d8a 583d
00000060: d7e3 693e 69eb 53be 3a4b 423e 7170 3e3e
00000070: 8ca6 3f3d 0a14 803e 981c d7bd b26c 2fbe
00000080: c388 6e3d 74a6 1f3e c1d6 613e ce7b 3dbe
00000090: 6d83 12be a418 fb3c 418a 273d 267c fd3d
000000a0: fdab f3bd f8c4 c33d 22e7 cebc ece8 59be
000000b0: f129 2d3d 8512 71bc 163a 153e aa8b f03d
000000c0: efb5 37bd 020d ddbd d2a9 c43d ce45 8b3c
000000d0: c082 db3d 25e1 2ebe c219 b53d 1cb1 91bd
000000e0: 1215 f2bd 5832 07be 4eb7 fd3d 3cac 81be
000000f0: f920 febd 1add 21be e531 13be ceea bd3d
00000100: 447e 553e ea56 333e 7c28 193d b9ec 1c3e
00000110: 7263 32be ef34 4e3e 239c 783e 39f6 2b3d
00000120: 3e97 233e 42fe 80be 7578 9a3d 4896 35be
00000130: 9d94 7fbe 6a30 683e 4ddd 7bbd 007f e4bd
00000140: 5dca b63d a53b 593e 87f8 f13d 1f4b fabd
00000150: d62c c73d d87d 103e 3cd5 393e 3d35 1fbe
00000160: a7dd 2dbe 4dfc 963d fac7 5d3d 573f 563d
00000170: bd20 b03c 298e fabd 0aa0 673a dfc2 59be
00000180: 3b44 17be 8aa8 4e3e 53b6 e73d 5131 c13d
00000190: c408 823c dd26 2cbd 06ff b33d da21 11be
000001a0: bd50 b13d e706 873d e8a0 163d d6ec cd3d
000001b0: aa3a 623e 0ce8 80be 5fd3 2a3d f558 53be
000001c0: bdda 4ebd c10a 0d3d 73fb 74be ed70 63be
000001d0: 654f ffbd a7db 55be 77fe 543e 8070 9d3d
000001e0: 746f 2c3e ead2 60be 72cf 333e 4527 c4bc
000001f0: 435f c6bb d519 6e3e 37cd ebbd 5edb 45be
00000200: 51c0 3f3e 07f8 923d cb3f b53c ddf5 abbd
00000210: 22a9 e63d 9713 f53b 24bb 333e afda bfbb
00000220: 6cfc d0bd dc4f 063c ede3 6bbe 418f 1bbe
00000230: 0015 d73d 0560 41be 1b93 563e 9342 67be
00000240: 0620 943d 8802 c13d 0d30 813d b961 35bd
00000250: dea0 eb3c a8fe 0bbd bc6e 04be d015 d6bd
00000260: 983b 913d 69e9 36be 4f8f bb3b e5b7 c53d
00000270: 1039 003d 1de7 353e 33d6 32be 5221 753d
00000280: 7ea6 f13d 65a3 353e 1d97 75be 4d23 663e
00000290: 2e13 acbd d6e7 213e 244e babb 65f5 143e
000002a0: 354f dd3d 4273 be3d bf67 32be 29cf 633e
000002b0: 90c5 bcbd e41d a1bd a32a 413e f632 a03c
000002c0: 64df 9cbb 6915 5abe 309c eabd 0fc3 6f3e
000002d0: ddcc 9a3d 6e18 c23d c14a 06bd a554 6ebe
000002e0: c4c2 1f3d d1b7 6bbb 8317 283e fa92 1f3e
000002f0: 2128 813e 50b4 84bd f83a d13d 2c3a 303b
00000300: a5ac 49be 2e7c 75bd 27fd 65bd fd03 d23d
00000310: a19d 013e 4de2 c53d 4b80 703e 0747 e63b
00000320: ad04 4bbc 1caf 0abe 7f24 ae3d 7b37 36be
00000330: 8b75 22be 1b39 38be f0f6 903d a11c 40be
00000340: 4c17 8ebd cc5f 37be 0fc2 3c3e 9b5a 9dbd
00000350: f872 3abd 5c9d 553e 7d14 f43d 5341 353c
00000360: c6af 0b3e 2cf8 043e c118 4f3e 6ccc 4fbd
00000370: e450 fe3c 7389 813e a292 53bd 60af 053e
00000380: 461e afbd 3f8b 83be 0694 183e f4d1 713d
00000390: 6de6 773d 1f8c 30be 7e9c 343d 9be5 563d
000003a0: aeed 84be 93fc 66be 9b3a 6fbe 28e7 8c3e
000003b0: 1918 703e 2c7e 4f3d 5f70 52bd 4a88 8cbe
000003c0: e074 0bbe 5a53 c9bc 6aa3 2cbe 2737 bcbb
000003d0: 6084 983d 7097 b3bd e673 e63d 7bde 5bbe
000003e0: 94eb 6a3e d474 2ebd c9a0 753e 13d1 073e
000003f0: 1ece ddbd 6e10 843e eaf2 293e 722c 033e
0.22268496 0.15716769 -0.007130236 0.16428281 0.060439993 0.23086613 -0.21825005 0.2579673
-0.03242873 0.17876464 0.19263601 0.087043844 -0.16874313 0.1018674 -0.07668705 0.1661389
0.051710315 0.21060976 -0.027710449 0.20888756 0.21732198 0.16586839 0.05203315 0.052866448
0.2284082 -0.2069527 0.18974009 0.1859758 0.04678969 0.2501529 -0.10503501 -0.17131308
0.058235895 0.1559084 0.22054578 -0.18504259 -0.14307947 0.030651398 0.040903334 0.12377195
-0.118980385 0.09559053 -0.025256697 -0.21280259 0.042276327 -0.014713888 0.1457294 0.11745389
-0.04485124 -0.10793497 0.09602703 0.017001059 0.10718298 -0.17078073 0.088428035 -0.07113859
-0.11820425 -0.13202798 0.12388478 -0.25326717 -0.12408633 -0.15807 -0.14374502 0.09273301
0.20848948 0.17513624 0.037392125 0.15324678 -0.17420748 0.2013738 0.24278311 0.041982863
0.15975663 -0.25193983 0.075425066 -0.17733109 -0.24959035 0.22674718 -0.061490346 -0.11157036
0.089253165 0.21214159 0.11814981 -0.122213595 0.09725349 0.14110506 0.18147749 -0.15547653
-0.16979085 0.07372341 0.05414579 0.0523065 0.021499986 -0.12234146 0.00088357984 -0.21265744
-0.14772122 0.2018148 0.113140725 0.094332345 0.01587332 -0.04202925 0.08788876 -0.1417307
0.08657978 0.065931134 0.036774546 0.100549385 0.22092691 -0.25177038 0.041705485 -0.20639403
-0.050501574 0.034434084 -0.23924045 -0.22211047 -0.12466315 -0.20884572 0.20800196 0.07687473
0.16839391 -0.21955457 0.17559603 -0.023944506 -0.0060538366 0.23252042 -0.11513751 -0.19321963
0.18725707 0.07176214 0.022125145 -0.08396504 0.11262728 0.007479142 0.17551857 -0.0058549265
-0.10204396 0.008197751 -0.23036166 -0.15191366 0.10502052 -0.18884285 0.20954554 -0.2258399
0.072326705 0.09424311 0.06307993 -0.04428265 0.02876323 -0.034178406 -0.12932867 -0.10453379
0.07091445 -0.17862476 0.005723871 0.09654216 0.03130442 0.17763944 -0.17464523 0.05984623
0.11799334 0.17738111 -0.23983426 0.22474404 -0.08402096 0.15811095 -0.0056855846 0.14546736
0.10806123 0.092993274 -0.17422388 0.22246994 -0.092173696 -0.07867029 0.18863921 0.01955555
-0.0047873724 -0.2129723 -0.11455572 0.23414253 0.07558606 0.09477316 -0.032786135 -0.23274477
0.039004102 -0.0035967717 0.16415219 0.15583411 0.25225928 -0.064797044 0.102163255 0.0026890142
-0.19694765 -0.05993288 -0.056149628 0.10254667 0.12657787 0.09662304 0.2348644 0.00702751
-0.0123912515 -0.13543361 0.08503055 -0.17794602 -0.15865152 -0.17990534 0.070783496 -0.18760921
-0.06938037 -0.17907637 0.18433402 -0.07683297 -0.0455198 0.20860809 0.1191797 0.011062938
0.13641271 0.12985295 0.20224287 -0.05073206 0.031044431 0.25300178 -0.05165351 0.13055182
-0.08550696 -0.25692174 0.14900216 0.059038118 0.060522486 -0.17240952 0.044094555 0.052465063
-0.25962585 -0.22557287 -0.233622 0.27520108 0.23446693 0.050657436 -0.051376697 -0.2744773
-0.13618803 -0.024575878 -0.16859213 -0.0057438794 0.074471235 -0.08769119 0.112525746 -0.21471588
0.22941428 -0.042591885 0.23987116 0.13263349 -0.10830329 0.25793785 0.1659657 0.12809923

encoder.epic.epic.epic_layers.0.fc_local1.bias f4 [16]
00000000: 3b12 93bd 2ea0 e1bc 0c85 bcbd c34d f5bc
00000010: cea0 293d 67cf 0bbd 5b2e c43d fb8f 88bd
00000020: 5861 32bc 67f1 be3d b83f a73d 8149 2fbc
00000030: dfef 023e 5ad1 083e cf7a 92bd b246 203c
-0.071812116 -0.0275422 -0.09205064 -0.029944306 0.04141312 -0.03413334 0.09579154 -0.06668087
-0.010887466 0.093233876 0.0816645 -0.010698677 0.12786816 0.13361111 -0.0715233 0.00978248

encoder.epic.epic.epic_layers.0.fc_local1.weight_g f4 [16, 1]
00000000: f22a 203f 6757 083f c5a2 203f 4702 193f
00000010: 3810 273f f0f8 293f c2ce 0c3f 0fe5 203f
00000020: ef1a 383f 6e13 1f3f e7f9 133f 46ed 253f
00000030: 91c0 2f3f ccd2 013f 50f2 103f ad19 2d3f
0.6256553 0.53258365 0.62748367 0.597691 0.6525912 0.66395473 0.5500299 0.62849516
0.719161 0.6213902 0.57803196 0.64815176 0.6865321 0.50712276 0.5661974 0.67617303
